checkpoints/pubmed/0.7/GCN_2l/seed/0/GCN_2l_best.ckpt (torch, 35883 bytes, 6 tensors)

conv1.weight f4 [500, 16]
-0.42724657 0.512494 -1.340738e-08 0.44618264 0.24923927 -0.049102943 -0.47499368 -0.2630765
-0.52552056 0.32552367 0.3594006 -1.2952819e-08 -0.36154613 0.32189804 -0.39761397 0.29805112
-0.023424678 0.055448227 -2.0710441e-08 -0.009856723 -0.0914589 0.08237396 -0.05726936 -0.09263121
-0.04326112 -0.06013421 -0.08713882 -1.8421051e-09 0.07096101 0.07601287 -0.03702074 0.08606909
0.11943007 -0.14154747 4.576656e-09 -0.11903986 0.017234987 -0.0143864555 0.15334967 0.108507186
0.14589691 -0.021101069 -0.022397552 -1.282113e-08 0.024859246 -0.09383021 0.1298464 -0.07791653
0.0374466 -0.028977305 1.0014233e-08 -0.05850211 -0.042883743 0.027131798 0.032770723 0.009530955
0.025749158 -0.031435765 -0.054998413 -1.4509023e-08 0.034890834 -0.0011861509 0.031009374 0.0059500593
-0.02382523 0.047657836 -1.03162305e-08 0.016455919 -0.026747383 0.025806157 -0.043092553 -0.050220747
-0.039463185 -0.022307731 -0.014128672 4.495371e-09 -0.004435244 0.03230321 -0.038446262 0.031051064
0.04303729 -0.061368432 -1.0606306e-08 -0.076396696 -0.010297963 -0.0036827934 -0.007626213 0.0042038397
0.007723433 0.017588632 -0.008329423 1.1808602e-08 0.03644169 0.00064842904 0.005036107 -0.011475654
-0.282077 0.25147235 2.2505562e-09 0.33028883 0.15869927 -0.12189618 -0.15298389 -0.0389938
-0.19011731 0.1434586 0.2481672 9.5048165e-09 -0.26088166 0.02934889 -0.2145303 0.010817366
-0.089738116 0.09268931 1.4818251e-08 0.061382636 -0.02824832 0.038955186 -0.087527804 -0.08075869
-0.09703139 -0.014833958 -0.014983591 -6.02948e-09 0.0074342988 0.07590959 -0.07319665 0.075112194
-0.4200207 0.38319993 3.8073176e-09 0.41068125 0.12702595 -0.055351514 -0.32508564 -0.17545074
-0.37039137 0.19566764 0.2730363 6.773803e-09 -0.22855799 0.14383301 -0.33167237 0.12539949
0.1608345 -0.027468262 7.6771833e-10 -0.21546097 -0.21891357 0.22571602 0.07316236 -0.11897664
0.09850047 -0.21623069 -0.2621555 -1.8336133e-09 0.20643821 0.07654588 0.07092142 0.1390642
0.107149385 -0.0996912 -3.928717e-09 -0.087057 0.007591602 0.0017862974 0.11474936 0.06962576
0.10548256 -0.02797972 -0.02783302 5.6747975e-09 0.026277758 -0.059193775 0.09854919 -0.04370855
0.0325902 -0.13810974 8.550239e-09 0.03858458 0.20585617 -0.21303432 0.13689697 0.2399519
0.09239097 0.15497532 0.20512408 3.9727013e-09 -0.17769986 -0.19460857 0.09574088 -0.22322933
0.07559808 0.0030351812 -4.246129e-09 -0.12138943 -0.15421045 0.15181647 0.00298272 -0.092728354
0.017262029 -0.14433885 -0.17671196 1.8567718e-09 0.13775855 0.07131356 0.022647772 0.10132516
-0.081358254 0.074552335 1.5428197e-08 0.0748376 0.026184577 -0.02610291 -0.044016488 -0.022820659
-0.059092436 0.021937573 0.05253882 -9.8930375e-09 -0.07043884 0.0060124365 -0.059360344 0.002430858
-0.09319373 0.09767757 1.09378e-08 0.061945505 -0.03730976 0.03636684 -0.09542043 -0.08248474
-0.10189416 -0.010098507 -0.015450964 5.0151896e-09 -0.0029986624 0.0752049 -0.07789242 0.07349828
-0.2763681 0.2594835 -1.4319732e-08 0.21989979 0.13800056 -0.017798495 -0.053441115 -0.16359062
-0.091187894 0.040617444 0.26267856 -1.0146593e-08 -0.2532422 -0.023192812 -0.16849223 0.016194034
00000000: 10c0 dabe cf32 033f 4856 66b2 0d72 e43e
00000010: 9438 7f3e 2b20 49bd 5f32 f3be f7b1 86be
00000020: 8488 06bf 0aab a63e 5b03 b83e 1a87 5eb2
00000030: 931c b9be d2cf a43e 0f94 cbbe 289a 983e
00000040: 1ce5 bfbc ae1d 633d bee6 b1b2 187e 21bc
00000050: ce4e bbbd aeb3 a83d 4793 6abd 6fb5 bdbd
00000060: 9232 31bd 4a4f 76bd d675 b2bd 502d fdb0
00000070: 0254 913d a3ac 9b3d 0fa3 17bd fe44 b03d
00000080: c197 f43d d2f1 10be b140 9d31 2ccb f3bd
00000090: 6330 8d3c 2bb5 6bbc b207 1d3e 0439 de3d
000000a0: 0066 153e 26dc acbc 127b b7bc ed43 5cb2
000000b0: 9ea5 cb3c 0e2a c0bd 74f6 043e b492 9fbd
000000c0: 9b61 193d d061 edbc 100b 2c32 e99f 6fbd
000000d0: dda6 2fbd 8143 de3c 983a 063d b927 1c3c
000000e0: e6ef d23c cac2 00bd 0446 61bd 5c43 79b2
000000f0: b1e9 0e3d 9f78 9bba 5f07 fe3c b7f8 c23b
00000100: 212d c3bc dd34 433d 433b 31b2 90ce 863c
00000110: 541d dbbc 6f67 d33c d181 30bd 45b4 4dbd
00000120: 26a4 21bd b4be b6bc f27b 67bc b475 9a31
00000130: 8655 91bb 5f50 043d d479 1dbd cd5e fe3c
00000140: df47 303d 775d 7bbd 0737 36b2 df75 9cbd
00000150: cab8 28bc 055b 71bb 50e5 f9bb 5dc0 893b
00000160: da14 fd3b 0916 903c 2278 08bc c8de 4a32
00000170: e243 153d 56fb 293a ed05 a53b 6204 3cbc
00000180: 666c 90be fcc0 803e 34a8 1a31 9e1b a93e
00000190: 1082 223e b4a4 f9bd cfa7 1cbe f6b7 1fbd
000001a0: 1dae 42be d0e6 123e 8b1f 7e3e a04a 2332
000001b0: 4892 85be 156d f03c d5ad 5bbe 523b 313c
000001c0: 9ec8 b7bd e5d3 bd3d 5b93 7e32 5c6c 7b3d
000001d0: 0569 e7bc 798f 1f3d c741 b3bd d064 a5bd
000001e0: 65b8 c6bd 210a 73bc bc7d 75bc de2b cfb1
000001f0: 6b9b f33b 7d76 9b3d 20e8 95bd 6cd4 993d
00000200: f40c d7be c832 c43e 85d1 8231 d044 d23e
00000210: 1713 023e 45b8 62bd a071 a6be 5ca9 33be
00000220: f0a3 bdbe 195d 483e 6acb 8b3e 00bf e831
00000230: 1b0b 6abe f648 133e f6d0 a9be b968 003e
00000240: cdb1 243e 1f05 e1bc 6007 5330 cda1 5cbe
00000250: e12a 60be 1a22 673e 26d6 953d 06aa f3bd
00000260: 9dba c93d 946b 5dbe 3f39 86be 8802 fcb0
00000270: 8a64 533e 16c4 9c3d 403f 913d d866 0e3e
00000280: 2371 db3d e62a ccbd 5cfd 86b1 f14a b2bd
00000290: f9c2 f83b 3222 ea3a b601 eb3d f397 8e3d
000002a0: 3e07 d83d ba35 e5bc 1302 e4bc 0cfc c231
000002b0: 7444 d73c 2c75 72bd 28d4 c93d bd07 33bd
000002c0: 4d7d 053d a46c 0dbe 59e4 1232 dd0a 1e3d
000002d0: f6cb 523e ab25 5abe b82e 0c3e f3b5 753e
000002e0: 7a37 bd3d dab1 1e3e 0c0c 523e 4080 8831
000002f0: f4f6 35be 7847 47be cb13 c43d 3b96 64be
00000300: 2bd3 9a3d e4e9 463b 58e5 91b1 059b f8bd
00000310: 58e9 1dbe c775 1b3e bd79 433b 5de8 bdbd
00000320: 1969 8d3c 90cd 13be fbf3 34be 5a31 ff30
00000330: 9410 0d3e d80c 923d d287 b93c 9183 cf3d
00000340: 289f a6bd e5ae 983d f786 8432 7544 993d
00000350: 0a81 d63c c5d5 d5bc a24a 34bd 64f2 babc
00000360: e90a 72bd 6db6 b33c f232 573d 0af6 29b2
00000370: 3d42 90bd f903 c53b d523 73bd 084f 1f3b
00000380: 5bdc bebd 2e0b c83d f4e8 3b32 92ba 7d3d
00000390: 1ed2 18bd 65f5 143d c96b c3bd c2ed a8bd
000003a0: e3ad d0bd 3574 25bc 0a26 7dbc 1352 ac31
000003b0: 3585 44bb 0705 9a3d 1086 9fbd 4486 963d
000003c0: 1f80 8dbe 05db 843e d902 76b2 692d 613e
000003d0: 0550 0d3e 26ce 91bc 12e5 5abd 4d84 27be
000003e0: b8c0 babd 7a5e 263d ce7d 863e 3051 2eb2
000003f0: f6a8 81be dafe bdbc 3a89 2cbe 5aa9 843c

conv1.bias f4 [16]
0.1760078 0.34215546 -0.025063943 0.2694475 0.1811138 0.2588286 0.29810315 0.15547104
0.30327106 0.24700081 0.26757878 -0.025561012 0.27343434 0.40480796 0.33845383 0.36385942
00000000: 643b 343e 002f af3e e652 cdbc 06f5 893e
00000010: e575 393e 2f85 843e faa0 983e cd33 1f3e
00000020: 5846 9b3e c8ed 7c3e 1600 893e 5465 d1bc
00000030: 96ff 8b3e fd42 cf3e d249 ad3e c84b ba3e

convs.0.weight f4 [16, 16]
0.21885885 0.80081344 4.612568e-06 0.62307316 0.6433691 -0.3006485 -0.6319404 -0.4816435
-0.581207 -0.959972 0.8141992 0.40235934 -0.8545855 1.3972201e-06 -7.622455e-07 0.4395336
0.43388724 -0.51048565 5.4589144e-10 -0.99828327 -0.31770223 -0.41292384 0.2593492 0.5472581
0.4791979 0.6070824 -1.0446974 0.19689038 0.5222899 1.0514086e-06 -2.897941e-07 -1.0588151
2.2399387e-08 1.04866915e-08 3.100539e-08 4.239227e-09 -6.837723e-09 -7.2938866e-07 2.082174e-09 -1.772232e-08
-7.489942e-09 2.6344769e-09 2.7835358e-06 5.087808e-06 -3.166341e-07 1.683393e-08 5.0219913e-09 -2.773322e-09
-0.6530838 -0.6905245 -7.750117e-08 -0.7641881 -0.80608785 0.8431742 0.7304945 0.76976335
0.20905413 0.594005 -0.7201863 -0.38948 0.8135474 1.9689189e-07 -2.3657378e-08 -0.4478166
-0.75680923 -0.28417698 -5.223749e-09 -0.008014138 -0.57420915 1.2634618 0.7270318 0.75256085
-0.80360013 0.48441133 0.6279813 -0.9517868 0.26607132 -1.0650517e-08 -1.5041426e-09 0.91583174
0.93545306 0.42853603 -1.0954082e-06 -0.19743682 0.4763217 -1.123647 -0.67998356 -0.36811802
0.5673984 -0.40147352 -0.7664441 0.9716315 -0.37694824 2.3169055e-06 1.95155e-08 -0.72579455
-0.27551207 0.5913346 6.1383223e-09 0.48359987 0.73762226 0.6294026 0.104216225 -0.5575277
-1.0539691 -0.7240184 0.6364666 0.07248803 -0.2971777 1.4263462e-06 -1.3246673e-08 0.9242366
-0.8127619 0.42040023 -8.7659794e-07 0.96145153 0.31831816 1.2094742 0.4607696 0.06875684
-0.8561097 -0.37659758 0.7782889 -0.93739986 0.117144056 1.4693152e-06 1.3717865e-07 0.7615872
-0.09958987 0.8307589 -1.0496459e-07 0.59529924 0.7044701 0.39970013 -0.2933461 -0.4114403
-0.89069694 -0.5618213 0.53085315 0.081515156 -0.63233453 1.1064301e-06 -9.018204e-09 0.86281127
-0.8035368 -0.52027756 5.154364e-08 -0.33490905 -0.51112807 1.1715524 0.58591783 0.63659686
-0.1396306 0.20003802 0.6449876 -0.7008439 0.5530119 2.810691e-07 -2.7415462e-07 0.5987095
-0.99527746 -0.4970385 1.5602136e-08 -0.31273973 -0.66008496 1.2311012 0.6076023 0.8403915
-0.84940004 0.7160413 0.7237666 -0.8856193 0.8680648 -3.9759392e-08 -9.976947e-09 0.7196338
-7.899005e-08 1.1571175e-08 -8.8933723e-07 -2.2620743e-08 -1.597533e-07 -1.5210136e-07 7.746795e-09 3.48403e-07
-5.834432e-08 3.0499737e-07 -1.0935289e-08 -1.5659502e-08 9.38852e-07 -9.0838455e-08 -4.3129322e-10 3.8922474e-09
0.6109797 0.5137101 6.9273796e-07 0.22913687 0.8803872 -1.0147738 -0.54058486 -0.5860044
0.94690466 -0.5927698 -0.06387166 0.86423546 -0.6188684 4.2790366e-06 -3.205089e-07 -0.46998885
0.6152216 -0.14682344 -8.00784e-09 -0.6010974 0.11085334 -0.80286914 -0.1604474 0.041048586
0.93988883 0.6764073 -0.8283449 0.9339252 0.01568721 1.6120056e-06 -7.61645e-09 -0.5055774
0.057674915 0.42834097 -1.5908108e-07 0.7379829 0.7370502 0.4182624 -0.111818716 -0.53805864
-0.63062817 -0.79095584 0.75618005 0.013718849 -0.33221376 1.8005903e-06 7.092579e-08 0.5539634
0.9266195 0.15474455 -3.9230956e-09 -0.7425166 0.31233022 -0.81836224 -0.33710492 0.12865572
0.8818987 0.37773204 -1.0198506 0.9813057 -0.06770216 1.9541599e-06 -4.2451997e-10 -0.58903056
00000000: 891c 603e 1c02 4d3f a8c5 9a36 b981 1f3f
00000010: d6b3 243f 9aee 99be d9c6 21bf fa99 f6be
00000020: fbc9 14bf bac0 75bf 5c6f 503f 0b02 ce3e
00000030: 1ec6 5abf 1e88 bb35 1d9d 4cb5 8c0a e13e
00000040: 7826 de3e 30af 02bf b20d 1630 7e8f 7fbf
00000050: dea9 a2be c16a d3be 6bc9 843e 1b19 0c3f
00000060: 6d59 f53e c169 1b3f a5b8 85bf a29d 493e
00000070: cab4 053f 201e 8d35 ff94 9bb4 4187 87bf
00000080: c668 c032 f528 3432 c92a 0533 a3a8 9131
00000090: 3ff1 eab1 35cb 43b5 fe15 0f31 cb3b 98b2
000000a0: 1dad 00b2 350a 3531 c8cc 3a36 f0b7 aa36
000000b0: dcfd a9b4 349a 9032 e78d ac31 cc94 3eb1
000000c0: 8030 27bf 37c6 30bf b86e a6b3 d5a1 43bf
000000d0: c65b 4ebf 44da 573f b001 3b3f 360f 453f
000000e0: 4912 563e b610 183f 215e 38bf ec69 c7be
000000f0: a444 503f 3b69 5334 2037 cbb2 3848 e5be
00000100: 40be 41bf a57f 91be 957c b3b1 bb4d 03bc
00000110: 5fff 12bf 1eb9 a13f c21e 3a3f d4a7 403f
00000120: bdb8 4dbf c304 f83e 62c3 203f 4da8 73bf
00000130: 803a 883e 78f9 36b2 50ba ceb0 f373 6a3f
00000140: da79 6f3f 1369 db3e f005 93b5 e12c 4abe
00000150: 70e0 f33e aad3 8fbf 6713 2ebf f779 bcbe
00000160: 0641 113f f08d cdbe ae35 44bf d8bc 783f
00000170: 5cff c0be 227c 1b36 0aa3 a732 accd 39bf
00000180: eb0f 8dbe b461 173f 41e9 d231 679a f73e
00000190: d0d4 3c3f 8720 213f 516f d53d 23ba 0ebf
000001a0: 76e8 86bf 4559 39bf 7aef 223f 9b74 943d
000001b0: ad27 98be e270 bf35 7c93 63b2 c59a 6c3f
000001c0: 2a11 50bf b33e d73e 5a4f 6bb5 b021 763f
000001d0: 99fa a23e 0dd0 9a3f fee9 eb3e 63d0 8c3d
000001e0: 012a 5bbf 66d1 c0be f13d 473f 70f9 6fbf
000001f0: 39e9 ef3d 4935 c535 614b 1334 61f7 423f
00000200: c6f5 cbbd 9eac 543f e568 e1b3 8865 183f
00000210: 2758 343f 7fa5 cc3e 7631 96be 4ea8 d2be
00000220: b704 64bf 85d3 0fbf fee5 073f 6bf1 a63d
00000230: ade0 21bf a680 9435 7bee 1ab2 33e1 5c3f
00000240: 96b4 4dbf e930 05bf d560 5d33 3379 abbe
00000250: 4ad9 02bf 6ef5 953f b6fe 153f 03f8 223f
00000260: 53fb 0ebe c4d6 4c3e e81d 253f 816a 33bf
00000270: 3092 0d3f d8e5 9634 862f 93b4 0745 193f
00000280: 81ca 7ebf d57b febe 7605 8632 6c1f a0be
00000290: 54fb 28bf b994 9d3f d38b 1b3f e623 573f
000002a0: 4872 59bf 7c4e 373f c548 393f f2b7 62bf
000002b0: 7f39 5e3f eac3 2ab3 1467 2bb2 ec39 383f
000002c0: 3da1 a9b3 91ca 4632 caba 6eb5 8a4f c2b2
000002d0: a788 2bb4 4e51 23b4 c416 0532 250c bb34
000002e0: 4296 7ab3 85be a334 e9dd 3bb2 9c83 86b2
000002f0: 6b05 7c35 f812 c3b3 201b edaf 92bc 8531
00000300: 2a69 1c3f 8182 033f 97f4 3935 dba2 6a3e
00000310: 0e61 613f 1ce4 81bf c563 0abf 6204 16bf
00000320: 5868 723f c3bf 17bf 25cf 82bd 893e 5d3f
00000330: 296e 1ebf a594 8f36 6812 acb4 61a2 f0be
00000340: 2a7f 1d3f e258 16be da92 09b2 85e1 19bf
00000350: 1307 e33d d588 4dbf 534c 24be 9022 283d
00000360: 8e9c 703f 0729 2d3f 690e 54bf b915 6f3f
00000370: 7782 803c 175c d835 80d9 02b2 856d 01bf
00000380: 883c 6c3d 824f db3e e0cf 2ab4 73ec 3c3f
00000390: 52af 3c3f 7d26 d63e 3601 e5bd 36be 09bf
000003a0: d970 21bf 157c 4abf 0495 413f 06c5 603c
000003b0: ec17 aabe d0ab f135 de4f 9833 8cd0 0d3f
000003c0: f036 6d3f 5b75 1e3e eacb 86b1 9115 3ebf
000003d0: bfe9 9f3e 3080 51bf 0499 acbe 53be 033e
000003e0: 1dc4 613f 1866 c13e 778a 82bf da36 7b3f
000003f0: 6ea7 8abd 3624 0336 e061 e9af b5ca 16bf

convs.0.bias f4 [16]
0.33075956 0.32964838 -0.018977784 0.5694411 0.2894159 0.18252392 0.21939301 0.17736694
0.5142128 0.36013633 0.3172222 0.25196493 0.26520693 -7.656895e-06 -0.009524147 0.08880999
00000000: 5159 a93e acc7 a83e 4c77 9bbc e4c6 113f
00000010: 522e 943e 8de7 3a3e 90a8 603e ae9f 353e
00000020: 73a3 033f ca63 b83e f36a a23e 8c01 813e
00000030: 34c9 873e 1d76 00b7 2b0b 1cbc 03e2 b53d

ffn.0.weight f4 [3, 16]
-0.5898448 -0.98858273 4.753991e-08 -0.9376075 -0.7112251 1.0409381 0.7900757 0.7543845
0.7461109 0.9036212 -0.7369682 -0.69061184 0.8662339 3.0543706e-06 -5.3636597e-09 -0.7185789
0.814825 0.64991146 3.292655e-09 0.07629547 0.85029083 -1.6372085 -0.8923261 -0.6947556
0.90848905 -0.5769855 -0.749242 0.89110017 -0.8064637 -6.6760977e-06 7.973386e-08 -0.8378727
-1.0204432 0.6028533 2.8778135e-08 1.033456 0.54832923 1.5058424 0.26727462 -0.35453117
-1.0045662 -0.66050833 0.8764366 -0.8827077 -0.40795895 2.6700538e-06 8.124076e-09 0.99607015
00000000: 1200 17bf c213 7dbf af2e 4c33 0c07 70bf
00000010: d912 36bf 763d 853f 6742 4a3f 581f 413f
00000020: 2001 3f3f b853 673f f3a9 3cbf f0cb 30bf
00000030: 81c1 5d3f b0f9 4c36 404b b8b1 c9f4 37bf
00000040: 5f98 503f 9960 263f 0045 6231 cd40 9c3d
00000050: a9ac 593f 0c90 d1bf 7c6f 64bf 81db 31bf
00000060: bd92 683f 52b5 13bf 53ce 3fbf 241f 643f
00000070: 6874 4ebf 3e03 e0b6 273a ab33 d37e 56bf
00000080: e29d 82bf 9854 1a3f ca33 f732 4948 843f
00000090: 4e5f 0c3f 72bf c03f 38d8 883e 1c85 b5be
000000a0: a095 80bf 1317 29bf 265e 603f 22f9 61bf
000000b0: ffdf d0be 2d2f 3336 1092 0b32 74fe 7e3f

ffn.0.bias f4 [3]
0.036481686 0.058965124 0.15711027
00000000: d26d 153d 6a85 713d 84e1 203e
