checkpoints/photo/0.7/GCN_2l/seed/0/GCN_2l_best.ckpt (torch, 51883 bytes, 6 tensors)

conv1.weight f4 [745, 16]
-0.018735 0.0042377077 0.1533826 -0.00012745892 0.06769882 0.01931843 0.015177157 0.004485937
0.014414313 0.000737382 -0.0045840894 -0.09184304 0.040896334 -0.0086459555 -6.745596e-08 -0.0031207507
0.035831578 0.0976898 -0.07254402 -0.0019309637 0.039363008 -0.0066085616 -0.03365701 -0.040053755
-0.00039921695 0.0016323463 0.2343794 -0.09439888 0.061532065 -0.008046496 9.2207665e-07 -0.002653003
0.16237059 -0.062139895 0.08097719 4.4072658e-07 0.017186632 -0.021021472 0.007323579 0.0055517424
-0.024536476 -0.014686451 0.0024815574 -0.06376301 -0.1014385 0.0047853813 -1.7544188e-09 0.00025828666
-0.08506943 -0.0758054 -0.04720004 -0.00029233217 0.15627572 -0.014869262 -0.05087517 -0.0211844
-0.025238145 -0.021561401 0.038888674 0.012744107 0.10642514 -0.009791979 1.515821e-08 -0.0057002096
0.10509129 0.322792 -0.017873406 0.00010022759 -0.0065938043 -0.06619028 0.030255435 -0.016844284
-0.034318984 0.015673844 0.037296887 -0.03933179 0.24799782 -0.0022419868 -1.2626208e-07 0.00020382323
0.08799936 -0.17876193 0.16832058 -0.0004616866 0.005070568 0.003723081 -0.03878936 0.0060304273
-0.018274406 -0.027483061 -0.066225216 -0.009072754 -0.14520785 0.0011237281 2.1742594e-09 -0.0044381423
0.08750822 0.049284868 0.022842217 -0.0062207673 0.17033675 -0.06357121 -0.033154953 -0.02720293
-0.023528624 -0.011617504 0.00856898 -0.017259099 -0.018726163 -2.6834454e-05 -2.26113e-06 0.007911318
0.21100576 0.2070955 0.095492795 -0.00014575192 0.18384102 -0.00858831 -0.01093054 0.0036771072
-0.032498326 -0.044628233 -0.07838723 -0.088405214 -0.051695827 0.0008145549 7.653012e-08 -0.003324535
0.04874762 -0.045009036 0.08315377 -0.000146353 0.10395776 -0.0521004 -0.007517456 -0.026102083
-0.007379655 -0.017047325 -0.02647452 0.021242687 -0.079645604 -0.0026355821 -7.761834e-07 -0.0041207285
-0.2966393 -0.12822065 0.18131265 1.4049492e-08 0.20421533 0.021189608 -0.04456463 -0.017061563
-0.005696465 -0.0099196145 -0.1503529 0.025394594 0.14987068 -0.0030485203 -1.7876804e-08 0.0004215062
-0.20045504 -0.09833768 0.34591234 -0.00045962376 0.014183642 -0.04570165 -0.018103054 -0.028463827
-0.061994288 -0.047896285 -0.2739645 -0.026115201 -0.06185642 -2.7817803e-08 -0.0019672057 -0.013435972
0.037910536 0.10784761 0.0024914832 6.485959e-05 0.055776175 -0.014532018 -0.045586146 -0.010869599
-0.008444307 -0.023701338 0.23156044 0.012146466 0.034120016 -0.005033218 -7.2794535e-08 -0.0002711005
0.018230977 0.33732384 0.12543939 7.271796e-05 -0.09645125 -5.0568982e-05 -0.027043499 -0.020830492
-0.050905734 0.00030411585 -0.11200106 -0.003829071 -0.101606324 -1.7959636e-07 -2.1934134e-06 -0.0007929562
0.115123495 -0.09747455 0.1381534 -0.000100886675 0.07140923 -0.025301058 0.002785169 -0.033525243
0.015484207 0.008461973 -0.054797098 -0.0723954 0.0111580305 -0.0033230507 2.7028149e-08 -0.0033532174
-0.12556775 -0.007953267 0.013325571 -0.012267137 0.17835869 0.0066744885 0.0262714 0.024961002
0.00030958635 -0.028788142 0.065946184 0.029817503 -0.13485196 7.501961e-05 7.521294e-05 0.0009580919
0.03058179 -0.2295752 0.16264857 -1.5908556e-07 0.118587054 -0.030393166 0.013668494 -0.012238309
-0.011459759 -0.03188065 0.030702248 -0.08126919 -0.06188412 0.0003162139 -1.0541002e-07 -0.001447701
00000000: 257a 99bc 78dc 8a3b 5410 1d3e 7ea6 05b9
00000010: aea5 8a3d af41 9e3c 9ca9 783c c4fe 923b
00000020: 032a 6c3c de4c 413a 2136 96bb 3418 bcbd
00000030: ea82 273d c4a7 0dbc 4edc 90b3 8285 4cbb
00000040: 22c4 123d 9711 c83d f691 94bd 6418 fdba
00000050: 1b3b 213d a28c d8bb efdb 09bd 680f 24bd
00000060: fe4d d1b9 74f4 d53a 2701 703e 3354 c1bd
00000070: 0c09 7c3d 73d5 03bc a084 7735 01de 2dbb
00000080: 7a44 263e 6786 7ebd 5ed7 a53d 009d ec34
00000090: fbca 8c3c 3935 acbc a2fa ef3b 64eb b53b
000000a0: b800 c9bc 719f 70bc a0a1 223b 2e96 82bd
000000b0: fdbe cfbd b0ce 9c3b 2020 f1b0 a66a 8739
000000c0: e238 aebd dd3f 9bbd d454 41bd 2944 99b9
000000d0: be06 203e 359e 73bc 7b62 50bd e88a adbc
000000e0: 3ac0 cebc 89a1 b0bc bb49 1f3d a9cc 503c
000000f0: 6cf5 d93d 896e 20bc 4235 8232 d3c8 babb
00000100: 1a3a d73d fe44 a53e 406b 92bc 4731 d238
00000110: d710 d8bb c58e 87bd 3fda f73c 06fd 89bc
00000120: 1092 0cbd 6f66 803c 9fc4 183d 5f1a 21bd
00000130: 24f3 7d3e 4cee 12bb a892 07b4 62b9 5539
00000140: 0239 b43d 5e0d 37be 3b5c 2c3e 870e f2b9
00000150: 0227 a63b effe 733b 98e1 1ebd e49a c53b
00000160: 35b4 95bc 2824 e1bc 16a1 87bd e3a5 14bc
00000170: 5eb1 14be 0f4a 933a fa69 1531 d66d 91bb
00000180: 8237 b33d eede 493d 9a1f bb3c 94d7 cbbb
00000190: c26c 2e3e 9f31 82bd 7dcd 07bd aed8 debc
000001a0: 1abf c0bc 5857 3ebc e864 0c3c f462 8dbc
000001b0: 9c67 99bc 8d1a e1b7 ebbd 17b6 799e 013c
000001c0: e511 583e d810 543e ba91 c33d fcd4 18b9
000001d0: d240 3c3e fcb5 0cbc 0216 33bc 9ffb 703b
000001e0: f71c 05bd 18cc 36bd 7c89 a0bd cb0d b5bd
000001f0: 01bf 53bd db87 553a e158 a433 71e0 59bb
00000200: 96ab 473d 655b 38bd 864c aa3d 5676 19b9
00000210: cee7 d43d 3b67 55bd fe54 f6bb 09d4 d5bc
00000220: 08d1 f1bb d5a6 8bbc 18e1 d8bc 2505 ae3c
00000230: 3c1d a3bd bbb9 2cbb eb5a 50b5 2d07 87bb
00000240: 1be1 97be 464c 03be 06aa 393e 525e 7132
00000250: d31d 513e d495 ad3c 6789 36bd b1c4 8bbc
00000260: 69a9 babb e185 22bc 1cf6 19be 5308 d03c
00000270: b377 193e afc9 47bb 828f 99b2 9bfd dc39
00000280: 1644 4dbe 4465 c9bd 6c1b b13e a8f9 f0b9
00000290: 8262 683c a731 3bbd db4c 94bc f92c e9bc
000002a0: b9ed 7dbd e52e 44bd 1345 8cbe 8cef d5bc
000002b0: 285d 7dbd fff3 eeb2 3cec 00bb 8d22 5cbc
000002c0: 1448 1b3d 35df dc3d 2748 233b 3a05 8838
000002d0: 8f75 643d b417 6ebc 8ab8 3abd 6716 32bc
000002e0: fe59 0abc 4f29 c2bc 2e1e 6d3e f901 473c
000002f0: 6ec1 0b3d b1ed a4bb 3853 9cb3 7e22 8eb9
00000300: 2159 953c b6b5 ac3e 2f73 003e 2880 9838
00000310: 3c88 c5bd 081a 54b8 548a ddbc b5a4 aabc
00000320: 8882 50bd bd71 9f39 d060 e5bd 27f1 7abb
00000330: fa16 d0bd 12d7 40b4 8e32 13b6 64de 4fba
00000340: dec5 eb3d bda0 c7bd 1678 0d3e 1f93 d3b8
00000350: 013f 923d 2a44 cfbc 6287 363b c451 09bd
00000360: 79b1 7d3c 16a4 0a3c ec72 60bd 0a44 94bd
00000370: 2cd0 363c 8ac7 59bb 872b e832 a7c1 5bbb
00000380: d594 00be 6b4e 02bc 7f53 5a3c 1afc 48bc
00000390: a9a3 363e abb5 da3b 1e37 d73c 047b cc3c
000003a0: fa4f a239 1cd5 ebbc cb0e 873d d643 f43c
000003b0: a216 0abe d953 9d38 a4bb 9d38 7628 7b3a
000003c0: a986 fa3c c315 6bbe 598d 263e 1bd1 2ab4
000003d0: c5dd f23d 17fb f8bc d2f1 5f3c 3083 48bc
000003e0: b7c1 3bbc 4995 02bd 4883 fb3c 7670 a6bd
000003f0: 347a 7dbd 83c9 a539 c55d e2b3 c9c0 bdba

conv1.bias f4 [16]
0.19168068 0.14866148 0.08066597 -0.008065599 -0.023259772 -0.01906412 -0.020658428 -0.019183017
-0.021465773 -0.018988457 0.11983015 -0.028985284 -0.007561494 -5.7046697e-07 -0.0045210584 -0.01394138
00000000: f147 443e b73a 183e 3334 a53d 9325 04bc
00000010: 478b bebc 5b2c 9cbc dd3b a9bc b425 9dbc
00000020: fdd8 afbc ae8d 9bbc 8269 f53d 8c72 edbc
00000030: 69c6 f7bb 3122 19b5 6325 94bb 636a 64bc

convs.0.weight f4 [16, 16]
-0.22637795 0.56290853 0.25431475 0.38861594 -4.4838746e-09 -0.5702406 -0.06467699 -0.31584933
-1.0582597e-07 -1.5636845e-08 0.3555089 0.18718517 -0.765701 -0.5762085 -0.68532157 0.48996338
-0.117531486 0.5244269 0.30916563 0.55716 5.5208975e-08 -0.27188843 -0.53302085 0.19598098
-2.8660246e-08 -2.8768287e-07 0.33471057 -0.6736898 -0.82069284 -0.092367955 0.6757518 0.51963145
0.6195009 0.27968663 -0.25701526 0.43433735 -0.004031939 0.18069127 0.59003955 -0.3260353
-1.1589076e-06 3.485248e-07 -0.20328887 0.35040426 0.43999144 0.28563616 0.16643544 0.4467208
-2.2990896e-08 9.505283e-08 -0.00021655772 -8.2111946e-08 0.00012093965 -2.9267125e-07 -7.83767e-09 3.3790326e-07
9.165592e-05 -2.0633156e-07 0.00027028588 7.052635e-09 -4.146107e-05 2.3237399e-09 -3.4495455e-09 -1.5863894e-07
0.14026234 -0.3486932 0.4742089 -0.055816703 -0.20872886 0.81465304 -0.68291914 0.2835951
-0.12371957 -0.04296044 0.73592615 -0.079737656 0.6573173 0.6782351 -0.1988709 -0.68194085
-8.6067785e-06 -0.0117770955 -0.016647309 0.0035786233 0.19520396 4.232114e-09 1.641345e-07 0.10786075
-0.13683945 -0.00801645 -0.0076900586 -6.1974138e-06 -0.030644707 0.004774926 0.00049937476 -3.2418959e-09
-5.221711e-09 -3.6004945e-05 -0.025238963 -0.0012540951 0.026431961 -3.1770746e-08 6.75971e-10 0.0041315667
0.03243695 0.0007969714 -0.021627411 9.0057895e-08 -0.0003265644 -2.1701387e-08 -0.024647558 1.3351913e-08
0.015189847 0.029451964 0.3330744 0.16865818 -0.07311245 6.726739e-05 2.6647857e-08 0.09736651
0.28800982 -5.0679087e-06 -0.123248115 -0.24391805 0.22205643 -0.0043691243 0.23585677 4.448305e-06
-0.00069599727 0.053948604 -0.15691642 0.08957624 0.07800788 6.213136e-06 -1.0776462e-06 0.007119501
-0.18859741 5.9937535e-09 -0.04751449 0.07985904 -0.04642368 -8.2744235e-05 0.050635953 -1.1448088e-06
0.011965713 -0.011761625 0.04209542 0.057187825 -0.13734883 8.597501e-09 -1.1108637e-08 0.18962488
-0.016256792 0.048452254 -0.16856022 0.013351918 0.103276834 2.603651e-06 0.15792473 -7.216726e-06
-0.7047384 0.59592915 0.66471 -0.38882264 -0.02089925 -0.21070974 -0.65544385 -0.25962058
-0.1501514 -0.06252318 0.52998 0.39042804 0.2373569 -0.40615106 -0.13177133 -0.5389276
-0.04771283 0.041747734 -0.18502918 0.08402143 0.08516444 -0.0039422354 -1.2594614e-08 0.26147774
0.23181944 0.17616422 0.06759713 -0.020799354 0.22252673 -0.0798812 -0.3080525 0.077736884
-0.48280033 -0.17386003 0.6081925 -0.66872776 0.01673421 0.10427181 0.5955961 0.17439696
-0.035827197 -0.042988162 0.47043467 -0.30490765 -0.087474406 0.3967324 0.6847473 0.42608893
3.2578255e-06 -0.16179964 -0.08041949 0.02528414 0.20298824 -1.1098092e-06 -1.6239808e-07 -0.038437955
-0.085114695 -0.00056617655 0.05087748 0.07671083 -0.040333252 -6.6593134e-07 0.035377234 4.248453e-08
1.5776178e-07 0.00012763977 -8.673898e-06 -3.7009347e-08 3.353832e-07 2.2286275e-09 -2.5339493e-09 -5.739489e-07
1.5495525e-07 3.653967e-06 1.664136e-06 7.755684e-07 -1.6071688e-08 -6.449017e-07 -3.4496473e-08 -6.704735e-07
-9.820556e-08 0.0026812025 -9.415421e-08 -0.0012397734 -2.550136e-06 -2.4367296e-07 -1.002676e-08 -0.0054731905
0.0042605507 -6.7897163e-06 8.186379e-09 0.012994536 8.70846e-09 7.2385305e-06 0.0002212422 1.478081e-06
00000000: 9fcf 67be c61a 103f 8b35 823e abf8 c63e
00000010: 9410 9ab1 4afb 11bf 5f75 84bd 01b7 a1be
00000020: 7142 e3b3 c951 86b2 4305 b63e 78ad 3f3e
00000030: fb04 44bf 6682 13bf 3c71 2fbf 7bdc fa3e
00000040: 59b4 f0bd d740 063f f54a 9e3e 0aa2 0e3f
00000050: e91e 6d33 f634 8bbe 0e74 08bf 3daf 483e
00000060: 8c30 f6b2 d572 9ab4 2f5f ab3e ef76 2cbf
00000070: ed18 52bf 692b bdbd 12fe 2c3f 9106 053f
00000080: 9c97 1e3f 1633 8f3e 8197 83be 7761 de3e
00000090: 5b1e 84bb 2207 393e d50c 173f 19ee a6be
000000a0: c38b 9bb5 e21c bb34 f52a 50be 3068 b33e
000000b0: 8f46 e13e e73e 923e 0d6e 2a3e 97b8 e43e
000000c0: 847d c5b2 d91f cc33 c513 63b9 8555 b0b3
000000d0: fba0 fd38 6e20 9db4 70a6 06b2 1269 b534
000000e0: 6637 c038 fd8b 5db4 28b5 8d39 a253 f231
000000f0: 7ce6 2db8 aaaf 1f31 0c0d 6db1 5756 2ab4
00000100: eea0 0f3e ea87 b2be 82cb f23e 0ea0 64bd
00000110: 05bd 55be 1a8d 503f cad3 2ebf 6033 913e
00000120: b060 fdbd 49f7 2fbd a865 3c3f 7f4d a3bd
00000130: f245 283f d1a0 2d3f d0a4 4bbe ad93 2ebf
00000140: d565 10b7 b8f4 40bc f05f 88bc 5687 6a3b
00000150: 8ce3 473e 126a 9131 f33c 3034 19e6 dc3d
00000160: a41f 0cbe 6e57 03bc e3fc fbbb 61f3 cfb6
00000170: 9c0a fbbc fc76 9c3b 79e8 023a 09c8 5eb1
00000180: a86a b3b1 0404 17b8 f1c1 cebc 7360 a4ba
00000190: d787 d83c 4e74 08b3 3bcf 3930 1862 873b
000001a0: 9bdc 043d d8eb 503a f82b b1bc da65 c133
000001b0: bb36 abb9 db69 bab2 ade9 c9bc 5662 6532
000001c0: d6de 783c 3f45 f13c ba88 aa3e bbb4 2c3e
000001d0: fbbb 95bd e811 8d38 42e7 e432 1868 c73d
000001e0: 0676 933e 010d aab6 8269 fcbd a7c5 79be
000001f0: c362 633e df2a 8fbb 7084 713e a642 9536
00000200: 9673 36ba 36f9 5c3d b3ae 20be bf73 b73d
00000210: 98c2 9f3d 6f7a d036 a4a3 90b5 b44a e93b
00000220: ae1f 41be 9df1 cd31 8e9e 42bd 238d a33d
00000230: c226 3ebd f986 adb8 a567 4f3d 55a7 99b5
00000240: d70b 443c d5b3 40bc 3f6c 2c3d c83d 6a3d
00000250: 2ca5 0cbe 36b4 1332 4dd8 3eb2 062d 423e
00000260: f72c 85bc df75 463d 0d9b 2cbe 01c2 5a3c
00000270: ce82 d33d 62ba 2e36 05b7 213e 3427 f2b6
00000280: bc69 34bf d08e 183f 6f2a 2a3f c313 c7be
00000290: e734 abbc 4bc4 57be 2bcb 27bf fdec 84be
000002a0: 4ac1 19be 270c 80bd c5ac 073f 2fe6 c73e
000002b0: b00d 733e 08f3 cfbe 10ef 06be 29f7 09bf
000002c0: 876e 43bd acff 2a3d 4a78 3dbe 6d13 ac3d
000002d0: b26a ae3d de2d 81bb b35f 58b2 69e0 853e
000002e0: 1362 6d3e 6564 343e 5d70 8a3d 6863 aabc
000002f0: 0cde 633e c198 a3bd 0fb9 9dbe 8434 9f3d
00000300: 9b31 f7be 5d08 32be 81b2 1b3f be31 2bbf
00000310: 2f16 893c 758c d53d fc78 183f 1e95 323e
00000320: 8abf 12bd 5b14 30bd d0dc f03e db1c 9cbe
00000330: c825 b3bd 8220 cb3e 994b 2f3f 5428 da3e
00000340: 04a1 5a36 ceae 25be f9b2 a4bd af20 cf3c
00000350: 26dc 4f3e c1f4 94b5 a55f 2eb4 1e71 1dbd
00000360: 9d50 aebd 776b 14ba e864 503d 911a 9d3d
00000370: 7b34 25bd 74c2 32b5 b8e7 103d 3c78 3633
00000380: 3a65 2934 0ad7 0539 1c86 11b7 35f4 1eb3
00000390: b70e b434 6e26 1931 b521 2eb1 7811 1ab5
000003a0: c661 2634 ad36 7536 475b df35 a830 5035
000003b0: 040e 8ab2 4f1d 2db5 4629 14b3 97fa 33b5
000003c0: 14e5 d2b3 1db7 2f3b d331 cab3 e47f a2ba
000003d0: 0123 2bb6 28d2 82b4 2842 2cb2 7358 b3bb
000003e0: 179c 8b3b 38d3 e3b6 13a4 0c32 09e7 543c
000003f0: 369c 1532 81e2 f236 40fd 6739 7a62 c635

convs.0.bias f4 [16]
-0.0013931887 0.03845545 0.21660864 -0.2477003 -0.023628328 0.14125834 0.049187854 -0.084741876
-0.025852913 -0.01627269 -0.12307219 -0.04075482 0.3293506 0.20993835 -0.08203159 -0.15035632
00000000: a89b b6ba 7683 1d3d a8ce 5d3e 26a5 7dbe
00000010: 3290 c1bc 07a6 103e 3479 493d 268d adbd
00000020: 7dc9 d3bc 4e4e 85bc 460d fcbd 87ee 26bd
00000030: a4a0 a83e 14fa 563e 2e00 a8bd 02f7 19be

ffn.0.weight f4 [8, 16]
-0.4421907 0.47308958 0.04628877 -0.18108554 0.10700916 -0.38189313 -0.5490248 0.16495365
0.051644962 0.04938414 0.055128753 0.55143255 0.054129563 -0.25305462 -0.32416448 -0.3900089
-0.52002054 0.16009653 0.2991137 -0.34082198 -0.058944758 -0.4888101 0.20832624 -0.006743822
-0.046707533 0.1872889 0.190649 -0.26162657 -0.4907026 -0.25481027 0.31472582 0.42625558
0.5347727 -0.36913535 -0.7034972 0.4578991 -3.1540094e-05 -0.1188246 0.57178754 -0.048737586
-0.15583147 -0.03893739 -0.4972044 0.38540843 0.08942947 -0.038456608 -0.3302634 0.17436086
0.40188164 0.38298625 -0.49414295 0.29777896 -0.0063415016 -0.43544862 0.08106292 -0.1864989
0.011590702 0.0043329624 -0.18758856 0.29865932 -0.2963884 -0.18400156 -0.59886193 0.31113672
0.07356507 -0.4059167 -0.33866075 -0.93850726 0.06294662 0.32880637 1.0220497 0.09702325
-0.0037324345 0.10211967 -0.1354558 0.25105956 0.24412623 0.16822164 0.2498882 -0.00888764
0.41686 -0.12737432 -0.55730546 0.23319001 0.0024705504 -0.115491934 0.22926061 0.07573048
-6.621496e-09 0.0018312114 -0.44103658 -0.83230144 -0.4981312 0.052174967 0.67976266 0.4422327
-0.20850146 -0.39460176 0.29537776 -0.64063567 0.008779341 0.5996496 -0.39969206 -0.10165897
-0.12142899 -0.05118501 0.26330277 -0.06540247 0.476837 0.36661088 -0.30535904 -0.44211122
-0.08979604 -0.044085223 0.25966778 0.29840067 -0.020445753 0.29735026 -0.9415851 0.14114112
0.11914346 0.011796766 0.5326422 -0.5847259 -0.34465426 -0.03607638 -0.062596135 -0.11984945
00000000: d266 e2be cc38 f23e 4b99 3d3d 7d6e 39be
00000010: 9e27 db3d 7f87 c3be e48c 0cbf 9ce9 283e
00000020: ab89 533d 0647 4a3d b0ce 613d af2a 0d3f
00000030: f6b6 5d3d 6090 81be e3f8 a5be 3faf c7be
00000040: 1120 05bf 58f0 233e 6e25 993e 3880 aebe
00000050: 0f70 71bd 5145 fabe 7953 553e 47fb dcbb
00000060: 6650 3fbd a9c8 3f3e 7e39 433e ebf3 85be
00000070: 5f3d fbbe 7e76 82be be23 a13e 2c3e da3e
00000080: dde6 083f 4fff bcbe 6418 34bf c071 ea3e
00000090: eb49 04b8 505a f3bd ab60 123f 10a1 47bd
000000a0: 4992 1fbe d07c 1fbd 9391 febe 4154 c53e
000000b0: cc26 b73d ad84 1dbd 4918 a9be a78b 323e
000000c0: 6ec3 cd3e c616 c43e 4e00 fdbe 7c76 983e
000000d0: 5fcc cfbb 1ff3 debe 5104 a63d 91f9 3ebe
000000e0: eee6 3d3c 86fb 8d3b 3717 40be e0e9 983e
000000f0: 38c0 97be e86a 3cbe 044f 19bf 504d 9f3e
00000100: 49a9 963d 50d4 cfbe f164 adbe 0342 70bf
00000110: 28ea 803d 4f59 a83e 86d2 823f 20b4 c63d
00000120: dc9b 74bb 1e24 d13d edb4 0abe e18a 803e
00000130: 3afc 793e 4b42 2c3e b1e2 7f3e 779d 11bc
00000140: ad6e d53e 6a6e 02be 92ab 0ebf 5dc9 6e3e
00000150: f5e8 213b 0987 ecbd 4bc3 6a3e 9518 9b3d
00000160: 4b83 e3b1 4205 f03a 8ccf e1be b511 55bf
00000170: 0d0b ffbe 6bb5 553d ed04 2e3f 536c e23e
00000180: 6881 55be 3e09 cabe c13b 973e b300 24bf
00000190: 3ad7 0f3c a382 193f 70a4 ccbe 9432 d0bd
000001a0: c3af f8bd 5fa7 51bd 9fcf 863e bbf1 85bd
000001b0: fb23 f43e 6cb4 bb3e 0558 9cbe 675c e2be
000001c0: fce6 b7bd b592 34bd 2df3 843e f9c7 983e
000001d0: da7d a7bc 4b3e 983e b90b 71bf 4c87 103e
000001e0: 7d01 f43d 3947 413c 3d5b 083f 99b0 15bf
000001f0: 8676 b0be d4c4 13bd 6732 80bd a173 f5bd

ffn.0.bias f4 [8]
0.2386931 -0.039175913 -0.2174566 0.20450415 -0.0022999917 -0.09013236 0.23314251 -0.4455033
00000000: f76b 743e ec76 20bd f1ac 5ebe 8969 513e
00000010: 75bb 16bb 5197 b8bd e9bc 6e3e 0219 e4be
