attack_checkpoints/pubmed/20/GCN_2l/GCN_2l_best.ckpt (torch, 35883 bytes, 6 tensors)

conv1.weight f4 [500, 16]
0.27389246 -0.5200386 -0.18738787 0.15941867 -0.44194055 8.2071296e-08 0.34440276 -0.0033942116
0.4204109 0.12165719 -0.101085216 -0.38460323 -0.122435525 0.03528543 -0.59649193 -0.0067894664
-0.097568035 -0.0040094517 0.044626582 0.033175893 -0.07544443 9.938225e-08 0.024568493 -0.11277864
0.022707885 0.07880851 0.13898812 -0.11048905 0.08588165 -0.10017769 0.078367665 -0.009343458
-0.0883213 0.060073685 0.07519814 0.08196386 -0.05464279 3.331779e-08 0.041367408 -0.11101738
0.032804072 0.120388605 0.16257371 -0.059444264 0.121189855 -0.106826596 0.009917546 -0.009875553
-0.024761401 -0.03453667 0.045096137 0.03991304 -0.069076225 4.279297e-08 0.05090534 -0.05375841
0.061310943 0.061127555 0.070938356 -0.085431375 0.020004654 -0.040608417 0.03054111 -0.009268113
0.0450123 0.021398846 0.013270664 0.009660885 -0.040491436 -1.2710495e-08 0.033291664 0.045833133
0.0058976314 0.020229364 -0.023414394 -0.021336962 0.020096118 0.030545086 0.030966125 -0.0095095
0.14110224 0.0638277 0.016791403 -0.0015916203 0.02786214 3.493696e-09 -0.005269163 0.21028545
0.046202242 -0.036109656 -0.14304894 0.07390563 -0.01787917 0.1918656 0.0096537415 -0.009526413
0.14118947 -0.099436074 -0.03976098 0.06537966 -0.145499 2.1057549e-08 0.11297181 0.093815655
0.1277556 0.037916448 -0.0564102 -0.07172139 -0.037100464 0.06234921 -0.17022705 -0.008960164
-0.056868892 0.087945305 0.07825772 0.036057223 -0.012534825 1.15851726e-07 0.023994442 -0.06901151
0.03259146 0.09117966 0.11514709 -0.06539066 0.097534746 -0.060620345 0.005532774 -0.009700593
0.15623677 -0.17682259 -0.07090877 0.077537216 -0.17487405 5.4891718e-08 0.1691143 0.05999382
0.1725287 0.032057043 -0.07506123 -0.14451225 -0.035992786 0.067600876 -0.23408073 -0.008339668
-0.059162002 -0.080616064 0.05302309 0.09699099 -0.1436968 1.1205103e-07 0.086094856 -0.13647659
0.11391031 0.14050953 0.14398433 -0.17823115 0.08505914 -0.13376646 -0.0411595 -0.009279331
-0.1022176 0.053911887 0.06883202 0.05676618 0.030090917 -2.9368852e-08 0.03978343 -0.11861783
0.028858213 0.07745434 0.12216942 -0.071256876 0.11243681 -0.09750203 0.080613755 -0.010038449
0.14659123 0.034436926 -0.06563203 -0.0070955157 0.09915342 1.302691e-07 -0.005175164 0.1807345
0.017498264 -0.08018066 -0.1140929 0.08782326 -0.03729603 0.18574929 -0.029120196 -0.009251217
-0.002594483 -0.016095318 0.032178376 -0.0054255025 0.0025498094 -3.2066488e-08 0.005519806 -0.012180088
-0.00039237685 0.025090855 0.039299987 -0.031896334 0.029848583 -0.009611336 -0.02983251 -0.009398824
0.06526544 0.07042366 0.034632146 0.09252019 -0.12347761 -2.4889246e-08 0.08356288 0.04662981
0.036062784 0.096040934 0.017303491 -0.054605786 0.042479787 0.020086672 -0.009294304 -0.009408511
0.021409987 -0.011047876 0.032400604 0.033692054 -0.045271024 1.2701011e-07 0.04258035 0.0027758856
0.07201324 0.04425327 0.018441128 -0.086156785 0.016511934 0.0028259805 0.017092232 -0.009263489
0.20150979 -0.36595702 -0.031802684 0.27950534 -0.50192034 1.6683536e-08 0.4923018 -0.05180378
0.37862697 0.34124944 0.033122815 -0.32988918 -0.011753174 -0.10309488 -0.48774534 -0.008652718
00000000: a23b 8c3e 4021 05bf 9be2 3fbe a63e 233e
00000010: 0846 e2be 2c3f b033 8f55 b03e 6c71 5ebb
00000020: 1940 d73e 6827 f93d c405 cfbd b7ea c4be
00000030: 7abf fabd 7487 103d b2b3 18bf 2c7a debb
00000040: c0d1 c7bd b861 83bb 5dca 363d 72e3 073d
00000050: 9c82 9abd f86b d533 dd43 c93c 7df8 e6bd
00000060: e305 ba3c 5b66 a13d e752 0e3e 1548 e2bd
00000070: b8e2 af3d f629 cdbd 3a7f a03d 4e15 19bc
00000080: cce1 b4bd d30f 763d 7c01 9a3d abdc a73d
00000090: 1ed1 5fbd 4c19 0f33 df70 293d 155d e3bd
000000a0: 905d 063d 4d8e f63d b979 263e d47b 73bd
000000b0: 6332 f83d e7c7 dabd 347d 223c 12cd 21bc
000000c0: 6cd8 cabc 5376 0dbd bab6 383d db7b 233d
000000d0: d677 8dbd 5ecb 3733 1e82 503d c731 5cbd
000000e0: 2f21 7b3d e360 7a3d 2148 913d a5f6 aebd
000000f0: cde0 a33c 0355 26bd 5a31 fa3c 49d9 17bc
00000100: d15e 383d a24c af3c 336d 593c b048 1e3c
00000110: 59da 25bd 595d 5ab2 d75c 083d 86bb 3b3d
00000120: eb40 c13b 0db8 a53c 8bcf bfbc daca aebc
00000130: 9da0 a43c b039 fa3c acac fd3c bccd 1bbc
00000140: 1b7d 103e 19b8 823d 208e 893c ea9d d0ba
00000150: 253f e43c c015 7031 f1a8 acbb 1255 573e
00000160: 903e 3d3d b8e7 13bd 6c7b 12be d65b 973d
00000170: 5677 92bc 6a78 443e ba2a 1e3c ac14 1cbc
00000180: f993 103e 24a5 cbbd 69dc 22bd c5e5 853d
00000190: b1fd 14be 0ae2 b432 c45d e73d 6c22 c03d
000001a0: 5dd2 023e 474e 1b3d 620e 67bd aae2 92bd
000001b0: a8f6 17bd e361 7f3d 0050 2ebe a7cd 12bc
000001c0: 5bef 68bd ab1c b43d 9545 a03d bdb0 133d
000001d0: de5e 4dbc 29ca f833 fe8f c43c e855 8dbd
000001e0: 9f7e 053d 67bc ba3d 3dd2 eb3d 8aeb 85bd
000001f0: 4cc0 c73d 0a4d 78bd 464c b53b 3cef 1ebc
00000200: 88fc 1f3e fb10 35be 9e38 91bd d5cb 9e3d
00000210: 2f12 33be 15c2 6b33 4d2c 2d3e 14bc 753d
00000220: 5dab 303e 3f4e 033d b4b9 99bd 05fb 13be
00000230: 2c6d 13bd 5472 8a3d dcb2 6fbe 1aa3 08bc
00000240: db53 72bd 091a a5bd bd2e 593d 36a3 c63d
00000250: 4125 13be b5a0 f033 8052 b03d 85c0 0bbe
00000260: cf49 e93d bbe1 0f3e a170 133e 3a82 36be
00000270: 7d33 ae3d 13fa 08be dd96 28bd 5608 18bc
00000280: 7657 d1bd b6d2 5c3d cdf7 8c3d a783 683d
00000290: 3a81 f63c ca46 fcb2 f3f3 223d e8ed f2bd
000002a0: 0f68 ec3c 62a0 9e3d f633 fa3d 20ef 91bd
000002b0: 4545 e63d 25af c7bd d318 a53d 4f78 24bc
000002c0: 031c 163e bc0d 0d3d 166a 86bd 8081 e8bb
000002d0: f310 cb3d 19e0 0b34 6c94 a9bb 7712 393e
000002e0: 8558 8f3c c235 a4bd 8aa9 e9bd aedc b33d
000002f0: b9c3 18bd 1035 3e3e 7a8d eebc 6b92 17bc
00000300: 3408 2abb 54da 83bc 79cd 033d 6ac8 b1bb
00000310: b41a 273b 7ab9 09b3 7ddf b43b fe8e 47bc
00000320: eeb7 cdb9 568b cd3c 06f9 203d bba5 02bd
00000330: 0485 f43c dd78 1dbc 4f63 f4bc 86fd 19bc
00000340: e3a9 853d 483a 903d 70da 0d3d 3a7b bd3d
00000350: d4e1 fcbd 08cc d5b2 0423 ab3d e6fe 3e3d
00000360: 92b6 133d 1cb1 c43d 0dc0 8d3c 51aa 5fbd
00000370: 49ff 2d3d ce8c a43c 2347 18bc 2826 1abc
00000380: ff63 af3c 2702 35bc 7fb6 043d ae00 0a3d
00000390: 1c6e 39bd 4660 0834 bc68 2e3d a2eb 353b
000003a0: ad7b 933d eb42 353d d911 973c f872 b0bd
000003b0: 0944 873c 1634 393b 0205 8c3c e4c5 17bc
000003c0: 9558 4e3e b85e bbbe 8843 02bd 531b 8f3e
000003d0: da7d 00bf 7c4f 8f32 fb0e fc3e 3330 54bd
000003e0: 65db c13e 3fb8 ae3e caab 073d 3ce7 a8be
000003f0: 6290 40bc 6923 d3bd c2b9 f9be 21c4 0dbc

conv1.bias f4 [16]
0.19838005 0.25839576 0.37170035 0.13524401 0.27475768 -0.008083825 0.20389718 0.24761572
0.022971446 0.6411458 0.43787676 0.20677796 0.43910787 0.20263156 0.30424693 -0.022941217
00000000: 2424 4b3e 734c 843e 824f be3e 687d 0a3e
00000010: 0aad 8c3e 0572 04bc 6cca 503e fa8e 7d3e
00000020: 9d2e bc3c 2222 243f 6231 e03e 9abd 533e
00000030: bfd2 e03e a67e 4f3e 41c6 9b3e 38ef bbbc

convs.0.weight f4 [16, 16]
0.33792168 -0.58195114 -0.4819815 0.6901828 2.2559e-06 0.1665491 -0.7659262 -0.095477395
0.056000434 0.061577942 0.11807797 0.5903086 0.38722506 -0.20221497 0.26931855 -0.5180989
0.3940861 -0.21547392 -0.014274228 0.28371724 -9.5545275e-08 0.72011244 -0.026389878 -0.1085952
0.48969343 -0.24571382 0.06903516 -0.24690737 -0.34536353 0.489962 -0.044927422 -0.08796974
-0.039829057 0.11226035 -0.0119666215 -0.07176073 -2.5087976e-08 0.11549571 0.39947695 0.41464174
0.39625943 0.13676082 0.44070297 -0.027296014 0.3351405 0.2862783 -0.034021262 0.4267547
0.28725055 -0.012264433 0.0047044167 0.0046833428 -3.2069645e-09 -0.44082046 0.43891242 0.23900801
-0.09758241 0.42702314 -0.0034621693 0.28347677 0.4559132 0.3179794 -0.044461083 0.34347877
0.5388122 -0.5466364 -0.60427177 0.81062806 -4.021116e-09 0.48041722 -0.38194013 -0.4066001
0.9378866 -0.5932739 -0.39888042 0.26682147 -0.028345808 0.80812037 0.35606807 -0.5875432
-2.293681e-08 0.033750102 0.005014698 3.0565013e-07 -7.545579e-08 -6.459682e-05 0.025828622 0.043022014
-0.008926218 -0.06966294 -0.13571158 0.00026472873 -9.503775e-05 0.00011852383 -1.9908224e-07 -0.025053661
-0.1417939 0.34163564 0.473307 0.044881437 -5.783583e-07 0.0028341224 -0.15697427 0.48584637
0.26458254 0.17388974 -0.08706625 0.13769013 0.003550302 -0.29920685 -0.0018391188 0.18828245
0.44758567 -0.5513071 -0.350989 0.9399244 4.4158762e-07 0.63771224 -0.8737986 -0.4186273
0.12798522 -0.018654041 0.0467499 0.43120387 0.4106873 -0.25081342 0.37936935 -0.48256192
-0.16406408 0.045045372 -0.032839604 0.09786612 -2.4698141e-07 -0.0036802806 -0.29675463 -0.027398879
-0.39854085 0.27358565 0.47576925 -0.13264552 0.01889494 -0.37820596 0.0024181514 0.20988375
0.19722709 0.70986277 0.2795866 -0.0386977 4.0128634e-06 -0.18679728 0.43196753 0.28527093
0.11430003 0.3877957 0.13548389 0.26208732 0.02444844 0.123998076 -0.050727867 0.34187937
-0.27513278 0.745147 0.33502722 -0.46339887 -2.3387871e-08 -0.011749178 0.74860513 0.13511515
-0.37263325 0.29958728 0.090731375 0.057208225 -0.09388259 0.36657205 -0.1873729 0.076285444
0.7089949 -0.9145558 -0.5803973 0.9411205 -1.1043402e-08 0.32714316 -0.9305918 -0.5521635
0.87114555 -0.26769614 0.048172597 -0.0763793 -0.12609833 0.48612434 0.76785654 -0.42211738
0.06188112 0.576862 0.2941077 -0.026938623 -4.3351612e-08 0.17724586 0.29122695 0.32586035
0.18276873 0.35423517 -0.08754254 0.016762514 -0.018042602 0.13647935 -0.059829388 0.46456248
0.5767861 -0.6136455 -0.38197586 0.6116164 -2.0840883e-08 0.34992784 -0.5976203 -0.40720794
0.2564497 -0.21228802 0.37457463 0.41632575 0.27726936 -0.11929094 0.26316866 -0.60393333
0.2708025 0.23953903 0.18840185 -0.09968638 -1.2888782e-07 0.19504173 0.71334374 0.01246783
0.53893304 -0.24977657 -0.50484675 -0.46512303 -0.345375 0.9329973 -0.24230056 0.23461421
-0.011140964 0.024912817 0.025218526 -0.025851049 -7.723658e-08 0.017795807 0.025948562 0.02048499
0.004301231 -0.003880866 -0.008326165 -0.014753341 -0.014393644 0.0017867438 -0.011018742 0.026968071
00000000: 1204 ad3e c0fa 14bf 47c6 f6be d2af 303f
00000010: 1164 1736 d98b 2a3e bd13 44bf a789 c3bd
00000020: b660 653d 2739 7c3d ddd2 f13d 771e 173f
00000030: 5d42 c63e 7111 4fbe 1fe4 893e 21a2 04bf
00000040: a7c5 c93e 32a5 5cbe 74de 69bc 6343 913e
00000050: 922e cdb3 4a59 383f 962f d8bc 2967 debd
00000060: 19b9 fa3e 679c 7bbe 4e62 8d3d 49d5 7cbe
00000070: 7dd3 b0be 4ddc fa3e d105 38bd 7b29 b4bd
00000080: cb23 23bd c1e8 e53d a60f 44bc 4af7 92bd
00000090: 0b81 d7b2 0489 ec3d 3e88 cc3e ec4b d43e
000000a0: 84e2 ca3e 070b 0c3e d2a3 e13e e49b dfbc
000000b0: 8997 ab3e 1293 923e e159 0bbd 987f da3e
000000c0: 8112 933e c3f0 48bc 8227 9a3b ba76 993b
000000d0: 8461 5cb1 38b3 e1be 21b9 e03e 84be 743e
000000e0: 49d9 c7bd c7a2 da3e 90e5 62bb de23 913e
000000f0: 746d e93e 32ce a23e d31c 36bd 73dc af3e
00000100: 99ef 093f 5df0 0bbf 8eb1 1abf 5285 4f3f
00000110: 1c2a 8ab1 3ff9 f53e a88d c3be e32d d0be
00000120: 5619 703f cce0 17bf 0e3a ccbe d39c 883e
00000130: 7835 e8bc fae0 4e3f 8e4e b63e 3b69 16bf
00000140: 9406 c5b2 8c3d 0a3d 5652 a43b 3c18 a434
00000150: 420a a2b3 2778 87b8 8c96 d33c da37 303d
00000160: 463f 12bc 72ab 8ebd faf7 0abe 4acb 8a39
00000170: 014f c7b8 ff8f f838 4fc3 55b4 563d cdbc
00000180: 6c32 11be deea ae3e 4c55 f23e 99d5 373d
00000190: 7b40 1bb5 afbc 393b ddbd 20be dbc0 f83e
000001a0: 5d77 873e 2710 323e ca4f b2bd a4fe 0c3e
000001b0: 2fac 683b a431 99be 960e f1ba 1dcd 403e
000001c0: f329 e53e 7622 0dbf d5b4 b3be e39e 703f
000001d0: 5713 ed34 1c41 233f 44b1 5fbf 5156 d6be
000001e0: 8f0e 033e 5cd0 98bc d37c 3f3d c1c6 dc3e
000001f0: 9b45 d23e 9e6a 80be b33c c23e 5b12 f7be
00000200: 6a00 28be 7f81 383d d282 06bd 086e c83d
00000210: de98 84b4 dd30 71bb 39f0 97be 9d73 e0bc
00000220: 8c0d ccbe 6b13 8c3e 0798 f33e 3ad4 07be
00000230: 90c9 9a3c 36a4 c1be d979 1e3b c4eb 563e
00000240: e6f5 493e 91b9 353f fa25 8f3e 7b81 1ebd
00000250: 3ca6 8636 c947 3fbe d92a dd3e 080f 923e
00000260: 2216 ea3d 288d c63e 4abc 0a3e 4f30 863e
00000270: 1848 c83c b4f2 fd3d 06c8 4fbd d00a af3e
00000280: 34de 8cbe f4c1 3e3f b088 ab3e 9e42 edbe
00000290: 79e6 c8b2 a07f 40bc 96a4 3f3f a05b 0a3e
000002a0: c9c9 bebe 8163 993e 5fd1 b93d 2c53 6a3d
000002b0: 8445 c0bd 55af bb3e aede 3fbe 8b3b 9c3d
000002c0: b180 353f 5420 6abf eb94 14bf 46ed 703f
000002d0: 65b9 3db2 4f7f a73e 443b 6ebf 965a 0dbf
000002e0: 6503 5f3f 780f 89be a150 453d c06c 9cbd
000002f0: ec1f 01be 4ae5 f83e 3f92 443f c51f d8be
00000300: 0f77 7d3d 3aad 133f 4995 963e 63ae dcbc
00000310: 9a31 3ab3 f07f 353e b31b 953e 2bd7 a63e
00000320: ba27 3b3e 505e b53e 8149 b3bd 8a51 893c
00000330: 14ce 93bc 3ec1 0b3e a90f 75bd 22db ed3e
00000340: 41a8 133f df17 1dbf 5792 c3be e492 1c3f
00000350: 9605 b3b2 be29 b33e a5fd 18bf 8f7d d0be
00000360: 604d 833e 0862 59be 3fc8 bf3e a628 d53e
00000370: 40f6 8d3e cf4e f4bd 0bbe 863e 609b 1abf
00000380: a0a6 8a3e b849 753e 6aec 403e 5f28 ccbd
00000390: 6a64 0ab4 05b9 473e b29d 363f df45 4c3c
000003a0: 84f7 093f 6ec5 7fbe a33d 01bf 9b24 eebe
000003b0: fed4 b0be e9d8 6e3f a31d 78be b53e 703e
000003c0: 9788 36bc f715 cc3c 1597 ce3c 94c5 d3bc
000003d0: 42dd a5b3 83c8 913c 1492 d43c 23d0 a73c
000003e0: 57f1 8c3b 2156 7ebb 786a 08bc ffb7 71bc
000003f0: 52d3 6bbc 2c31 ea3a f487 34bc 25ec dc3c

convs.0.bias f4 [16]
0.3857913 0.043373775 0.10019069 0.00070845056 -0.014767954 0.3350635 0.17427336 0.012326
0.3775204 -0.07633969 -0.07674249 -0.13007787 -0.041433293 0.36263916 0.12799989 0.068654925
00000000: 7086 c53e b3a8 313d c730 cd3d 50b7 393a
00000010: 4af5 71bc 718d ab3e b774 323e fef2 493c
00000020: 5b4a c13e fc57 9cbd 2b2b 9dbd 2233 05be
00000030: f5b5 29bd d7ab b93e 6712 033e f49a 8c3d

ffn.0.weight f4 [3, 16]
-0.2992867 0.13959546 0.08381918 0.22039661 -2.4035804e-08 -0.4536747 -0.20472136 0.0632788
-0.42153326 0.25590327 0.36461136 0.2527754 0.48293465 -0.52456385 0.35433632 0.17104964
-0.1484252 0.3935338 0.25489676 -0.6726328 -1.8748358e-08 -0.077745 0.6215855 0.025520395
-0.16772941 0.06156385 -0.10645161 -0.3606394 0.08224403 0.28266624 -0.5462525 0.2626994
0.65013796 -0.9439211 -0.628608 1.2231957 2.8620621e-09 0.7624786 -0.8959994 -0.6237312
0.41618788 -0.42839548 -0.2049789 0.045394693 0.14879812 0.31031182 0.71187204 -0.5417583
00000000: 1b3c 99be 1df2 0e3e 64a9 ab3d a6af 613e
00000010: 4b77 ceb2 0d48 e8be 7aa2 51be 5198 813d
00000020: 35d3 d7be c105 833e 57ae ba3e c76b 813e
00000030: 3643 f73e d149 06bf 926b b53e a327 2f3e
00000040: c7fc 17be 437d c93e d481 823e aa31 2cbf
00000050: 130c a1b2 c538 9fbd 3a20 1f3f 2610 d13c
00000060: 42c1 2bbe 602a 7c3d 4d03 dabd baa5 b8be
00000070: 8f6f a83d a1b9 903e 34d7 0bbf 8980 863e
00000080: 716f 263f d0a4 71bf 74ec 20bf ad91 9c3f
00000090: eead 4431 cc31 433f 3760 65bf d9ac 1fbf
000000a0: 9416 d53e a756 dbbe fde5 51be c9ef 393d
000000b0: 895e 183e 31e1 9e3e 3f3d 363f acb0 0abf

ffn.0.bias f4 [3]
-0.16681448 0.07982614 0.27050802
00000000: 6ad1 2abe e37b a33d 0780 8a3e
