checkpoints/cora/0.7/GCN_2l/seed/0/GCN_2l_best.ckpt (torch, 95851 bytes, 6 tensors)

conv1.weight f4 [1433, 16]
00000000: f36d 25bd c084 0bbd cc8e 6cbd 9b11 85bc
00000010: 41b6 593d 978e 67bd 474a 313c 15c4 74bc
00000020: 4d2f 953c c311 8a3d e2b6 eabc c670 733d
00000030: f2f1 0bbd 91eb 8a3d 97c5 18bd d4b0 3b3d
00000040: d293 953d 0bcc 9dbc c931 e5bd c23b ff3c
00000050: 4d5e ec3d 9d5a 97bd ab98 1ebd c7ab bdbb
00000060: 9579 39bb 6971 a1bd 7594 083e f75f 033e
00000070: 4503 683d 2ee7 72bd ae55 49bd e31c 013d
00000080: 15aa 263e 6d1b 613d 8274 8d3d 19bf 013d
00000090: 97d1 413d d8e7 223e 0ca3 303e c60b 48be
000000a0: b0f6 6d3c 6879 983d 0217 13be 16ea ef3d
000000b0: 3c6f 91bd 3ba0 94bc 3f89 173c 1e0e a1bd
000000c0: 928e 463d dbe7 25bd d77f 473d 2247 893d
000000d0: baac 743d fbae 803d 7095 ff3a 5911 6c3c
000000e0: 3297 0d3a 7840 b1bd bdbd 2d3d 9f8b 803d
000000f0: e984 5d3d 86ec d0bb 602e 88bd e7cc 903d
00000100: 537e 8a3e 2093 203e bef8 fabd 7c31 16be
00000110: ebb0 29bd ae97 83bd 30f8 82bd 268b 63be
00000120: aaf2 8e3e 9982 54bc 8ebd 823e e7fb c4bc
00000130: fbea 06be 8820 563d ec78 d13d 8d6d 813e
00000140: bfbc 52bd 1161 fe3c 2963 743d 0ba5 e13c
00000150: 97b9 f8bb c7ff ad3b a562 d23c 0b32 8e3d
00000160: 08dc 32bd 772f 78bd 46d6 ce3b b07e 4bbc
00000170: 4ff1 b03c 1ed2 98bc 440b 45bd 2c59 183d
00000180: 5804 49be 8384 cf3d 00ef 183e 28b4 423d
00000190: 935a 10be 70c7 2cbc 31af ebbc 860f a13e
000001a0: 8b71 66bd c0a3 debd 61aa 963d 57a9 47be
000001b0: 4b3c bc3d afae 4dbc b554 023c 90f3 c73d
000001c0: 6943 003d a27b 6abb e020 5b3d c110 803b
000001d0: 69ad 97bc 5637 873c f3e9 403c baf9 96bc
000001e0: a5ba 9d3c 5e34 9fbc 1780 e8bb 50f4 94bc
000001f0: 0f81 6f3a 63c9 20bb f93f 68ba f99b ba3a
00000200: 7aa4 4f3d 1be5 51bd a4bf 2cbc 1cb7 b43d
00000210: 3c0c 023e f378 32bd 6107 a1bd bceb 923d
00000220: db88 ccbd 4482 1abe 9e5f ea3d cdd5 a03d
00000230: 1d07 113e 677d 87bd 7849 54bd 9072 46bb
00000240: 2495 b53c 74de 393c ee9f dabd 0a46 2c3c
00000250: 03ad 823d 0d90 2bbd 609a 4dbb d883 57bc
00000260: 7991 33bd 1513 aa3c 8cbe 503c 4bb7 8f3d
00000270: bd29 183c 23fd 1fbd b0ce f53c bea4 81bd
00000280: 54ee b83b 5a5b 00bd 3a56 39bd 5f26 0c3d
00000290: 38a0 a23d 265c f8bc 18ba 31bc 4957 db3b
000002a0: 86ad 41bd a366 36bd 691b e13c 242f 9a3d
000002b0: cd8c 0e3d 589c 11bc 6bbd 4dbd 70c0 993c
000002c0: 0fad 0cbd 3237 2a3d e7d1 0f3d d2c5 bc3b
000002d0: aa59 82bd 67b9 8b3c 6c1c d33b fdae 7c3d
000002e0: 80b4 2039 7dde 7bbb b087 ca3a 7ab9 87bd
000002f0: fa7b 8b3c 4cd7 07bc f9cd 163d 4ff3 c4bb
00000300: 2ce9 3f3c 5a3d 273d eb1e 2bbd 53b5 3a3c
00000310: ec8e 423a d11a 80bd b4df dd3c fb60 8f3c
00000320: 0d69 8fbc 9718 35bd dada 083d c6fd 333c
00000330: 6427 8839 b928 0abd 65b1 86bc a533 c73c
00000340: bdb1 8b3d 24f5 1dbd 7045 3cbd 3601 d7ba
00000350: 9539 643d 6f2f 94bc 8632 77bc ff93 98bd
00000360: d34a 043d 98a0 323d 7449 37bb 5ba2 af3d
00000370: f822 d13a 52f1 113c 6010 c43c 3a2d 06bd
00000380: e0b7 ce3d 05da 483d e202 afbc a25c cdbc
00000390: c0db 45bd 3a78 d73b cc7a 2bbb a733 2cbd
000003a0: 67e7 3d3d d620 35ba 60b1 573d 767d 12bd
000003b0: fd7e bebc 3771 8abd 1bc5 ce3d e4a4 4dbd
000003c0: d2b5 aebc 424b 96bc 7b24 983d 2d53 ef3c
000003d0: ffe7 443c 2f62 e03c d0ef 7e3b 69a9 d33c
000003e0: dcc8 d1bc 2be0 37bd ff25 fabb a595 82bb
000003f0: 1692 033d a1d7 f03b 9bdc 37bd ce73 d33c
-0.04038806 -0.034062147 -0.05775337 -0.016243747 0.053152326 -0.05653247 0.010820932 -0.014939328
0.018211031 0.06741669 -0.028651658 0.05943372 -0.034166284 0.06783212 -0.03729781 0.045822933
0.07303585 -0.019262334 -0.111911364 0.031156424 0.11541424 -0.0739033 -0.038719814 -0.0057882997
-0.0028301228 -0.078829594 0.13337882 0.12829576 0.056643743 -0.0593025 -0.049153976 0.03152169
0.16275819 0.054957796 0.06906988 0.031676386 0.04731902 0.15908754 0.17249697 -0.19535741
0.014524147 0.074450314 -0.14364246 0.1171457 -0.071012944 -0.01814281 0.009249031 -0.07864021
0.04847581 -0.040504318 0.048705902 0.06703021 0.059735037 0.06283375 0.0019499492 0.014408433
0.0005401253 -0.086548746 0.042417277 0.062766306 0.05408183 -0.006375852 -0.0664947 0.07070332
0.27049503 0.15681124 -0.12254475 -0.14667314 -0.041428488 -0.06425415 -0.06394994 -0.2222105
0.27919513 -0.01297059 0.25535244 -0.024045898 -0.13175575 0.052277118 0.10228142 0.25278893
-0.051449534 0.031052144 0.05966488 0.027544519 -0.0075904834 0.005310032 0.025681803 0.06943139
-0.04366687 -0.06059214 0.0063121645 -0.012420341 0.02159944 -0.01865488 -0.048106447 0.037194416
-0.19630563 0.101326965 0.14934921 0.04753509 -0.14097051 -0.0105455965 -0.028770061 0.31457156
-0.056260627 -0.108710766 0.07356716 -0.19498192 0.091911875 -0.012553855 0.007954766 0.09763253
0.031314287 -0.0035779257 0.05349815 0.003908247 -0.018515306 0.016505878 0.011774528 -0.018429626
0.019254038 -0.01943415 -0.0070953476 -0.018182904 0.00091363577 -0.0024534098 -0.00088596303 0.0014237157
0.050693966 -0.051243883 -0.010543738 0.08823988 0.1269998 -0.043572377 -0.078627355 0.07173869
-0.099870406 -0.15088755 0.11444019 0.07853279 0.1416287 -0.066157155 -0.051827878 -0.0030280687
0.022165842 0.011344541 -0.106750354 0.0105147455 0.063806556 -0.041885424 -0.0031372532 -0.013153993
-0.043839905 0.020761052 0.012740742 0.07017382 0.009287295 -0.03905977 0.030005783 -0.0633025
0.0056436453 -0.03133712 -0.045248248 0.03421628 0.079407156 -0.030317377 -0.010847591 0.006693755
-0.047284625 -0.044531476 0.02747889 0.075285226 0.034802247 -0.008887373 -0.05022947 0.01876852
-0.03434473 0.041556545 0.035112288 0.0057608867 -0.06364758 0.01705618 0.006442597 0.06169032
0.0001532603 -0.0038432174 0.0015451815 -0.06627174 0.01702689 -0.008291077 0.036817525 -0.00601045
0.011713307 0.040829994 -0.041777533 0.01139577 0.000742181 -0.06255115 0.027084209 0.017502299
-0.017506147 -0.044212904 0.033411838 0.010985797 0.0002596929 -0.033730242 -0.01644201 0.024316618
0.0682101 -0.038563862 -0.04596466 -0.0016403559 0.055718977 -0.018089024 -0.015087729 -0.07450103
0.03229792 0.043610185 -0.0027967365 0.08575889 0.0015955856 0.008907633 0.02393359 -0.032757975
0.10093665 0.049036045 -0.02136368 -0.025068585 -0.048305273 0.0065756114 -0.0026165722 -0.042041447
0.04636326 -0.0006909495 0.052659392 -0.03576418 -0.023253912 -0.06759875 0.10096189 -0.05020608
-0.021326933 -0.018346433 0.07428833 0.029214466 0.012018203 0.027390568 0.0038900264 0.025837617
-0.025608473 -0.044891518 -0.007633924 -0.003985124 0.03212174 0.0073499237 -0.04488812 0.025812056

conv1.bias f4 [16]
00000000: 97fc 923e fdf5 673e 8e1b cf3d 087e 923e
00000010: 99fc 8a3e 89be 053e 39c2 3a3e beaf 983e
00000020: 47d3 373e 3f1b 033e e9fc a03e 69ec a73e
00000030: 8d5f 9d3e 2516 5a3e 0cc6 8d3e 4efd 953e
0.28708336 0.22652431 0.101126775 0.2861178 0.27145842 0.13060965 0.18238153 0.2982158
0.1795169 0.12803362 0.31442955 0.32797554 0.30736962 0.2129751 0.2769016 0.2929482

convs.0.weight f4 [16, 16]
00000000: 5a06 eb3e 0222 3bbf f56f 0e3f 01b6 8e3e
00000010: 629c ae3e 92f7 5dbf 8e22 673c b8e7 683f
00000020: 7591 11be 78cc 29bd 50fe e03e e8c3 9c3e
00000030: 1aee 813e 99f0 573f 41ef 5f3f 173a 423f
00000040: ae84 1b3f b435 a23d 4aee 25bf 30fc 97be
00000050: 0811 593d ddfc 2a3f fe56 4c3f 4a6b 133f
00000060: b87f af3e b712 61be f874 39bf 2d80 133f
00000070: d67e d53e 86ec 183e 8866 c63e 927c edbe
00000080: 5b8f 433e b159 8f3f 3506 87bf ee07 f13e
00000090: 4f91 8fbf ac4b debe bb9e 83bf 572b 4fbf
000000a0: 9763 7e3f b05e 90bf cbeb 28bf c05e dfbd
000000b0: 5a63 00bf eb72 4fbf 2f62 a33f 91dd 903f
000000c0: e1bb b7bd cc6f 493f ea8e 60be f5e3 583f
000000d0: 3b05 083d 4bb6 813d bc98 cc3e 414c 8a3e
000000e0: 869d 803e 3418 ebbe ccaf d43e a924 d6be
000000f0: dd11 d9be 64a1 f33d 5a4a 0ebe 2c4b fc3e
00000100: 1398 97be b0a2 fb3e 1936 b13e efa1 df3e
00000110: 3d22 553f f486 cfbe d024 b23e 1b94 f63e
00000120: fd75 3cbf e645 5c3e 3b9c 1d3f 6468 2abf
00000130: a660 80bf 04f1 6e3e ea92 6ebf 287d e03e
00000140: a0c4 f13e 6979 4f3f e0f6 65be eb18 3dbd
00000150: e8a0 70bf 84b0 5bbf 9efd 2dbf 2973 37be
00000160: b480 a63e f1eb 3dbf 9eaf 043f c674 b5be
00000170: b928 a7be 8d90 35bf ecb4 6c3f 8167 673f
00000180: 9cdd 3b3f 74e5 2f3f 992a 15bf 62cb 11bf
00000190: d173 903c 23fc 8e3e 7001 203e ea11 523e
000001a0: 13d4 8d3e 120e 19be ba4a 25bf 592f 6c3d
000001b0: 9641 0dbf c9f6 263f 2ef0 c63e b868 893e
000001c0: f3cb 05bf f9ba 403f a12b 07bf b614 513f
000001d0: b865 b0be 723f 9b3e c67b 183f fd38 aebe
000001e0: fa7a 1f3e 894e 2dbe 64c6 19bf 2742 3d3e
000001f0: 994a dc3e ecc9 19bf bf2d 32bf bd9b 13bf
00000200: 6287 a7bd 242d 5bbf e662 2e3f 7d2d 01bf
00000210: ff2d 4ebe 8c9d 0a3e 1a11 46bf fb58 d1be
00000220: f05e 0c3f f966 503f e670 a93e 99b5 bb3e
00000230: 6dba 6e3f 412a ae3e eb11 853f d4f3 133f
00000240: a066 483f 14c3 70bd 2b00 033f f3d0 8ebf
00000250: 8674 1f3d aed2 583f a91d cc3d 18c4 cdbe
00000260: 8648 bcbe df46 703f 989c 303f a545 b5be
00000270: f7b5 3b3e 37b4 3fbf 7455 0c3f 4ea9 043e
00000280: d7cb 10bf dcc0 04bf 38c4 8b3e 8b14 523f
00000290: 1858 f43e 465c e03d 4163 c93e 1bff 393f
000002a0: 7e10 083f b16b f93d 7d1f c13e 2f81 1a3f
000002b0: d0ae 783f 0b5d 393f 6b90 d7be 6c16 05bf
000002c0: 5b07 04bd 9d90 273f 439c 9d3e 3259 463e
000002d0: 8809 683f 7a24 043e 3869 293f d90c 253f
000002e0: fcbb e7be 7671 e43e 61ea 323f b38d 29bf
000002f0: 49df 81bf 979c 563f 08e7 13bf 2175 be3e
00000300: b10b e7be 9d55 f93e bd06 33bd 1e45 613f
00000310: d1bb eabe 7121 2ebf aca1 e73e 90f3 dabc
00000320: b7ab 4ebe b4c8 f0be bbbc 153f 3c0d a7be
00000330: ec08 1d3c d80f e5be 8c42 0bbf 2051 fb3e
00000340: dc1d 1ebe fbdc 073f d7f0 b03e a0f5 07bf
00000350: dccc 39bc 346f cd3e b200 1cbf c7dd 55bf
00000360: 0344 1f3f ca77 5c3f 187b b63e 39f0 04bf
00000370: 43a4 773d 6437 b3be 28b2 a5bd 9e4b 4c3f
00000380: cdca 213f 5c8d 0dbf b4a6 373f e818 a0bd
00000390: 5281 9ebe 6239 3d3e 2ecf 503f 0ea6 543f
000003a0: 7d9b 12bc 62a4 8f3e c5f6 883e 7b0e 033f
000003b0: fdf0 773f 0b4b 37bf ed13 6c3f eba7 66be
000003c0: d0cd 13bf 5e78 1c3f 1a75 483e 9aae 863e
000003d0: 6d8e c13e 7834 283f 6830 53bf f1ca 46bf
000003e0: 9b92 423f fe86 063f 4bb6 0ebf 6587 123f
000003f0: 871b 833e e56c 303f 0f14 d7be e327 cd3e
0.45903283 -0.73098767 0.5563958 0.27873233 0.34103686 -0.8670589 0.01410736 0.90978575
-0.14215644 -0.041454762 0.43944025 0.30618215 0.2537697 0.843515 0.8747445 0.7586989
0.6074933 0.07920399 -0.64816725 -0.2968459 0.052994758 0.6679209 0.7982024 0.57585585
0.3427713 -0.21979795 -0.72444105 0.57617456 0.4169833 0.14933977 0.387501 -0.46384102
0.19097655 1.1199247 -1.0548769 0.47076362 -1.121622 -0.43417108 -1.0282816 -0.80925506
0.9937071 -1.1278896 -0.6598479 -0.10906744 -0.501516 -0.81034726 1.2764338 1.1317617
-0.08971382 0.78686213 -0.21929517 0.84722835 0.033208113 0.06333598 0.39960277 0.27011302
0.2512018 -0.45916903 0.41540372 -0.41824844 -0.4239644 0.11896017 -0.1389555 0.49276102
-0.2960821 0.49147558 0.34611586 0.43678233 0.8325537 -0.4053265 0.3479371 0.4815987
-0.73617536 0.21511039 0.61566514 -0.6656554 -1.0029495 0.23334128 -0.93192923 0.43845487
0.47220325 0.8104463 -0.22457457 -0.04616634 -0.93995523 -0.85816216 -0.67965114 -0.17915024
0.32520068 -0.74188143 0.5183047 -0.35440654 -0.32648256 -0.7092369 0.92463565 0.9039231
0.73385024 0.6870949 -0.58268124 -0.5695096 0.01763335 0.2792674 0.15625548 0.20514646
0.27700862 -0.14946774 -0.6456715 0.05766234 -0.551782 0.65220314 0.38855118 0.26837707
-0.52264327 0.752853 -0.5280095 0.8167223 -0.34452605 0.30321842 0.59563863 -0.34027854
0.15574256 -0.1692449 -0.60068345 0.18482266 0.43025663 -0.60073733 -0.69601053 -0.5765951
-0.08180119 -0.85615754 0.6811966 -0.50460035 -0.20134734 0.13536662 -0.77369845 -0.408882
0.54832363 0.81407124 0.33093947 0.36661986 0.93253213 0.34016612 1.0396093 0.5779393
0.78281593 -0.05877979 0.5117213 -1.1157516 0.038929485 0.8469647 0.09966595 -0.4018867
-0.3677408 0.9385814 0.68988943 -0.35404697 0.18331133 -0.7488436 0.5481789 0.1295521
-0.56561035 -0.5185678 0.2729814 0.82062596 0.4772346 0.109551 0.39333537 0.72654885
0.53150165 0.12178744 0.37719336 0.6035337 0.9714174 0.724076 -0.4210237 -0.5198734
-0.032233577 0.6545504 0.3078328 0.19369963 0.90639544 0.1290454 0.66176176 0.6447273
-0.45260608 0.44617814 0.69888884 -0.6623184 -1.0146266 0.8383269 -0.577744 0.37198737
-0.45126107 0.4869813 -0.043707598 0.8799609 -0.45846418 -0.6801978 0.45240533 -0.026727468
-0.20182692 -0.47028124 0.58491105 -0.32627285 0.009584647 -0.4473865 -0.5439842 0.4908533
-0.15441078 0.53071564 0.34558746 -0.5310917 -0.011340346 0.40123904 -0.6093856 -0.8354153
0.6221315 0.86120284 0.35640788 -0.5192905 0.060459387 -0.35003197 -0.08090621 0.7980288
0.63200074 -0.5529382 0.71738744 -0.078172505 -0.3095804 0.18478921 0.8156613 0.8306588
-0.008948204 0.28055102 0.2675077 0.5119397 0.96852094 -0.7159888 0.92217904 -0.22524993
-0.5773592 0.61121166 0.1957592 0.26305085 0.37803975 0.6570506 -0.8249574 -0.77653414
0.7600495 0.5254973 -0.55746907 0.57237846 0.2560694 0.6891616 -0.4200749 0.40069494

convs.0.bias f4 [16]
00000000: 3f8d 093e 275f 3a3e d3b9 493d d660 893e
00000010: 8859 a23e c6a9 123e dc2f 883e 995f 9f3d
00000020: 486b 903d 5a7d d33e fc9d 5a3e a561 353d
00000030: 439f 533d 9998 773e 91d1 a7bc bb39 a3bd
0.13432787 0.1820036 0.04924948 0.26831692 0.31708932 0.14322576 0.26599014 0.07781906
0.07051712 0.41306573 0.21349329 0.044282574 0.051665556 0.24179305 -0.020485671 -0.079699956

ffn.0.weight f4 [7, 16]
00000000: 04dd 58bd 488c 51bf 9be5 203d f6d1 f5be
00000010: f824 8a3e dea4 273e e4c5 2ebe 66a4 4d3e
00000020: bebf d23e 423e 4f3d 443e 21bf d5b6 483f
00000030: ea59 823f d53a 233f aebf 3b3f 386e 1dbf
00000040: 70be f5be a2a9 c53e 9707 f0be f592 c03e
00000050: d335 1dbf 712e aa3e 5319 163f 0886 8aba
00000060: 67da 863e 5ec7 fbbe ab67 dfbe b700 aa3e
00000070: 2e0d 623f 4f12 3cbf 2d82 84bf 6fd3 22bf
00000080: 93df 2bbf 8e40 f4bc 7fd2 d83e 6a5c e53e
00000090: 2c60 1a3f ee3f 13bf b744 ab3e 8bd8 d23e
000000a0: 5263 16bf acd0 42bd 4cf5 183f 6f07 e5be
000000b0: 5993 8ebf 3772 5c3f 8c57 9ebf 1a98 313b
000000c0: c55c 743e 34fe b2be 0e04 023f 4c1e 2abf
000000d0: 85d8 18bf bdc8 3abe 5d27 1fbf 48ad 1fbf
000000e0: 3e97 8a3d ab77 df3e 3b7b cb3e 1f6c 2ebf
000000f0: 93c6 603f 5eba 3bbf 5b74 583f da01 9e3e
00000100: bb7b 243f d5a6 ce3d 451f fabe 5feb d0be
00000110: 7643 bdbe 6092 8abe 5176 ea3e 7939 e23e
00000120: 036e c4be bdfe 40bf c904 30bd b6b8 81be
00000130: a8cc 14bf 5dad d9be 229d 723f 89bc 773d
00000140: be32 92bd 1bc0 cb3e 2c98 b9be 6426 11bf
00000150: fdef ba3e e9f9 353f 8bec 25be 5086 29bf
00000160: 0ffb a73d baa0 2c3f 2d36 e7be 667a d5be
00000170: 2ce2 39bf 7c97 3f3e 9538 23bf 9afb 2bbe
00000180: 507a fbbe 6915 543f 628d 4cbf 0b85 ee3e
00000190: ff3c 66bf 081a 44bf 9599 30bf 28a0 2dbf
000001a0: bab1 353f 1a31 73bf 53c2 35be 80eb 71be
000001b0: ee94 57bf b5d2 43be a9ac 573e 3786 483f
-0.052945152 -0.8185468 0.03928147 -0.4801175 0.2698133 0.16371486 -0.17067677 0.20082244
0.41161913 0.050596483 -0.62985635 0.7840398 1.018369 0.63761646 0.73339355 -0.61496305
-0.47996855 0.38605982 -0.4688079 0.3761212 -0.61410254 0.33238557 0.5863239 -0.0010568509
0.26338503 -0.49175543 -0.4363378 0.3320367 0.8830136 -0.73465437 -1.0352226 -0.6360387
-0.6713802 -0.029815938 0.42348096 0.4479707 0.60302997 -0.57519424 0.33450863 0.41180834
-0.587453 -0.047562286 0.59749293 -0.44732234 -1.1138717 0.8611178 -1.2370467 0.0027098716
0.23863514 -0.34959567 0.50787437 -0.6645248 -0.5970538 -0.18240638 -0.6216944 -0.6237378
0.067671284 0.43645987 0.39742455 -0.6813373 0.87803 -0.7333125 0.84552544 0.30860788
0.642513 0.100904144 -0.48851982 -0.40804574 -0.3696553 -0.270648 0.45793393 0.44184473
-0.38365182 -0.753887 -0.042973313 -0.25336236 -0.5812478 -0.42515078 0.94771016 0.060482536
-0.071385846 0.39795002 -0.3624891 -0.56699204 0.36511222 0.7108446 -0.16203515 -0.6622057
0.082021825 0.6743275 -0.4515852 -0.41694945 -0.72610736 0.1871013 -0.6375821 -0.16795197
-0.49116755 0.8284517 -0.79903233 0.4658588 -0.8993682 -0.7660222 -0.6898435 -0.67822504
0.70974314 -0.949968 -0.1774991 -0.23624992 -0.84211624 -0.19123347 0.21061958 0.78329796

ffn.0.bias f4 [7]
00000000: 5ef2 c0bd 6a2a 973d 1d46 603d 09d1 8b3b
00000010: 8f09 8ebd eaa1 d1bd b617 b7be
-0.09421228 0.07381137 0.054754365 0.0042668623 -0.06935417 -0.10235961 -0.35760278
