attack_checkpoints/citeseer/20/GCN_2l/GCN_2l_best.ckpt (torch, 241067 bytes, 6 tensors)

conv1.weight f4 [3703, 16]
0	0x318ccce2	4.0978287e-09
1	0xbe40d1ed	-0.1883008
2	0x3b808db6	0.0039231433
3	0x3724f42e	9.832014e-06
4	0x3d7b52e8	0.061358362
5	0x3e35a91e	0.17740294
6	0x3e0a60af	0.13513444
7	0xbd239ba9	-0.03994337
8	0xbcded14c	-0.02719941
9	0xbe06145e	-0.13093707
10	0x311edcab	2.3117461e-09
11	0x3db9c48f	0.09070694
12	0x3d10e060	0.03537023
13	0x3be6f287	0.0070479545
14	0xb1ebc237	-6.86148e-09
15	0x2df0ad80	2.736189e-11
16	0xb212d090	-8.54574e-09
17	0xbe457dda	-0.1928629
18	0xbc433aa4	-0.0119158365
19	0xb8128aa5	-3.4938235e-05
20	0x3d82bebc	0.06384036
21	0x3e3984ac	0.18117017
22	0x3e1f2ad0	0.15543675
23	0xbd5207a0	-0.051276803
24	0x3d35675d	0.044288028
25	0xbe264be5	-0.16239889
26	0xb0ce23be	-1.4998631e-09
27	0x3dafd949	0.08586366
28	0x3ddc23af	0.107489936
29	0x3dbb2f3c	0.091398686
30	0xb228cf5b	-9.826034e-09
31	0x30deec36	1.6219761e-09
32	0x31791808	3.624793e-09
33	0xba4f6732	-0.00079118006
34	0x39d46808	0.000405133
35	0x35746530	9.104433e-07
36	0xbd0c30bd	-0.034226168
37	0xbd89297f	-0.06697368
38	0xbd8d7937	-0.069078855
39	0x3d4ce4f7	0.050023045
40	0x3d7ae7e9	0.061256323
41	0x3d375406	0.044757865
42	0x3090a8d5	1.0525364e-09
43	0xbd8a4359	-0.06751127
44	0xbd049381	-0.032367233
45	0xbd879bd1	-0.066215165
46	0xb215f5af	-8.7288035e-09
47	0xb1c7f516	-5.8195253e-09
48	0x30ac4bb1	1.253616e-09
49	0xbd02cb5c	-0.03193222
50	0xba5e6b84	-0.0008484649
51	0xb7a94aec	-2.0181258e-05
52	0xbd4e2c5f	-0.050335284
53	0x3b4ae3b2	0.003095847
54	0xbccd89c6	-0.02509011
55	0x3ceb9721	0.028758587
56	0x3d8fdf3a	0.07024999
57	0xbd1fa570	-0.038976133
58	0xb1704a92	-3.4966985e-09
59	0x3b4b0879	0.0030980392
60	0xbd7cae9b	-0.061689954
61	0xbd03080e	-0.031990103
62	0xb1b5d837	-5.292374e-09
63	0x3184ec69	3.8685823e-09
64	0xb19c74e1	-4.553485e-09
65	0xbe0412eb	-0.12897842
66	0xb9aeb96e	-0.00033326022
67	0xb1b4c42a	-5.2609908e-09
68	0x3d90de82	0.0707369
69	0x3e0572db	0.13032095
70	0x3de86adf	0.11348509
71	0xbd3568b9	-0.044289324
72	0xbd4a4b78	-0.04938838
73	0xbd14415e	-0.03619515
74	0x31dfce93	6.513639e-09
75	0x3da51969	0.08061487
76	0x3d1b83ce	0.037967496
77	0x3bbef808	0.0058279075
78	0x3178898b	3.6166934e-09
79	0xb199d17d	-4.476702e-09
80	0x30bad15c	1.3592785e-09
81	0xbe44114c	-0.19147223
82	0xb909aca4	-0.00013129652
83	0x31920beb	4.250514e-09
84	0x3dbb1235	0.09134332
85	0x3e3961ed	0.18103762
86	0x3dcab6a8	0.0989812
87	0xbc86ea49	-0.016469138
88	0xbae7195a	-0.0017631457
89	0xbd56e6f9	-0.052466366
90	0xb18a2fc6	-4.02176e-09
91	0x3e527804	0.20553595
92	0xbe62aa04	-0.22135168
93	0xbe41823a	-0.18897334
94	0xb1feec14	-7.419212e-09
95	0x31224f8d	2.3619322e-09
96	0xb12e662f	-2.5378417e-09
97	0xbe41ecfc	-0.18938059
98	0xbaae3f02	-0.0013293924
99	0xb140ad42	-2.8038163e-09
100	0x3d319912	0.04335887
101	0x3df847a2	0.12123038
102	0x3d861060	0.06546092
103	0x39ffa080	0.00048756972
104	0x3c8e8040	0.017395139
105	0xbdc44f55	-0.09585444
106	0x2fbb3b08	3.4057046e-10
107	0x3defa40b	0.117012106
108	0xbe15a0c7	-0.14612113
109	0xbe05e9a4	-0.13077408
110	0x3007bab0	4.9378013e-10
111	0x30d4a698	1.5472379e-09
112	0x310df033	2.0654738e-09
113	0xbc8d8dca	-0.017279524
114	0x3a449d8c	0.0007500283
115	0x36095eed	2.0469845e-06
116	0x3de67957	0.112536125
117	0x3e08c0fb	0.13354866
118	0x3e053918	0.13010061
119	0xbdcfe3eb	-0.10150894
120	0xbdc3b91c	-0.09556791
121	0x3da8a49b	0.08234521
122	0x2f0ef858	1.3003054e-10
123	0x3e0c74a1	0.13716365
124	0x3d415d9e	0.04720842
125	0x3d27cf5c	0.040969238
126	0xb2046bf0	-7.707953e-09
127	0xb0a20baf	-1.1790372e-09
128	0x31ce9202	6.0119882e-09
129	0xbc8f20e2	-0.017471734
130	0x3ba18623	0.0049293204
131	0x37425f48	1.15854855e-05
132	0xbcee89da	-0.029118467
133	0xbb137b7e	-0.0022504027
134	0xbb8e1e30	-0.0043370947
135	0x3cf1147b	0.029428711
136	0x3d357d35	0.04430886
137	0xbe1b4609	-0.15163435
138	0xaf116320	-1.322289e-10
139	0xbd8d28d9	-0.06892557
140	0xbd24b5da	-0.04021249
141	0xbd64e05e	-0.055878036
142	0x3182dae9	3.808385e-09
143	0xb10b3808	-2.0259012e-09
144	0x310c99b0	2.0460043e-09
145	0xbd2d248f	-0.042271193
146	0x3c9787bd	0.018497342
147	0xb853d3bd	-5.0503517e-05
148	0x3df889a1	0.12135626
149	0x3dd6e044	0.10491994
150	0x3e04c249	0.12964739
151	0x3beaa374	0.0071605984
152	0xbd6f2b51	-0.05839092
153	0x3d4cc853	0.04999573
154	0x3009925c	5.00483e-10
155	0x3dae63f8	0.08515161
156	0xbd79ffba	-0.061034895
157	0xbdada272	-0.084782496
158	0x3223f695	9.543915e-09
159	0x324f8a04	1.2080367e-08
160	0xb12c4f32	-2.5074312e-09
161	0x3dccf228	0.10007125
162	0xba541451	-0.00080901856
163	0x340e0300	1.3225872e-07
164	0x3baf3b66	0.005347657
165	0xbd39066f	-0.04517215
166	0xbd192546	-0.037389062
167	0x3c4dbb14	0.01255681
168	0xbc429d85	-0.011878376
169	0x3da9733d	0.08273933
170	0xaf847a1c	-2.4097424e-10
171	0xbccbdd38	-0.024885759
172	0xbcd7a9d6	-0.026326101
173	0xbbaf6774	-0.0053529087
174	0x309a4a1c	1.1226038e-09
175	0xb084d056	-9.663477e-10
176	0x3229fb7e	9.894277e-09
177	0xbcea9215	-0.02863411
178	0xbbbf372b	-0.005835434
179	0xb88325aa	-6.253582e-05
180	0x3e1cb94b	0.15305059
181	0x3e8757d7	0.26434204
182	0x3e47dd1a	0.19517937
183	0xbd881fe1	-0.066467054
184	0xbddf8059	-0.10913152
185	0xbc911aa3	-0.017712897
186	0x32042b9e	7.693329e-09
187	0x3dd4fddf	0.103999846
188	0xbbb52680	-0.005528271
189	0xbc7c12b2	-0.015385317
190	0x329f2ca1	1.8530331e-08
191	0x3196e2e1	4.3913677e-09
192	0x3155def0	3.1122305e-09
193	0x3e09ec18	0.13468969
194	0x3aca4b3b	0.0015433797
195	0xb7906863	-1.7214747e-05
196	0xbe4430aa	-0.19159189
197	0xbe6e6882	-0.23282054
198	0xbe351d50	-0.17686963
199	0x3dce2aa5	0.100667275
200	0x3e18177f	0.14852713
201	0xbde5abd3	-0.112144135
202	0xb10fbf2e	-2.0917912e-09
203	0xbe658e48	-0.22417557
204	0xbcbef1a7	-0.023308588
205	0x3dbbe4b9	0.09174485
206	0xb189c211	-4.0092876e-09
207	0xb134cb34	-2.6308955e-09
208	0xb27b73d8	-1.4636463e-08
209	0xbd00435b	-0.031314235
210	0xbba137e9	-0.004919995
211	0x38aad998	8.146762e-05
212	0x3d2a2880	0.04154253
213	0x3d888c4c	0.066673845
214	0x3ca5c5e6	0.020235967
215	0xbce284d3	-0.027651226
216	0x3c3f53f8	0.011677735
217	0xbbcccea6	-0.0062502204
218	0xb1512530	-3.0434641e-09
219	0x3db9abdc	0.09065983
220	0xbdb0722d	-0.08615527
221	0xbcfc86d3	-0.030826008
222	0xb20563a9	-7.764279e-09
223	0x31d838cf	6.2928858e-09
224	0xb1b530c8	-5.273339e-09
225	0x3c9f8cc1	0.019476296
226	0xb84d5ddc	-4.8963222e-05
227	0xb1ca1ee8	-5.8824874e-09
228	0xbd56fc92	-0.052486964
229	0xbd6a7d4b	-0.057248395
230	0xbd85d080	-0.06533909
231	0x3cc8f6fc	0.024531834
232	0x3d554bd3	0.052074265
233	0xbbcd8f5c	-0.0062731933
234	0x3113aa22	2.1488025e-09
235	0xbd3200c0	-0.043457747
236	0xbd316428	-0.043308407
237	0xbd121843	-0.03566767
238	0x3105750e	1.9420585e-09
239	0x308d26c1	1.0270115e-09
240	0x310826db	1.9812691e-09
241	0x3d0b2eff	0.033980366
242	0x3b855ad7	0.004069667
243	0x32121632	8.503365e-09
244	0x3ccd5294	0.02506379
245	0xbce7b2ac	-0.02828344
246	0xbba020d9	-0.0048867282
247	0x3b373a60	0.0027958378
248	0xbc9c64e9	-0.019091086
249	0x3d4abdf5	0.049497563
250	0xb1830866	-3.8135566e-09
251	0xbc2b102a	-0.0104408655
252	0x3c431a5b	0.011908139
253	0x3c353ff9	0.011062616
254	0xb0b16cfa	-1.2909418e-09
255	0xb18f871b	-4.1772075e-09

conv1.bias f4 [16]
0	0x30c12738	1.4053745e-09
1	0x3e7560a4	0.23962647
2	0x3d027dfa	0.03185842
3	0xb90f7b82	-0.00013683553
4	0x3ee7f792	0.4530607
5	0x3efde23d	0.4958667
6	0x3edc2133	0.4299408
7	0xbe8c8271	-0.2744327
8	0xbe967da4	-0.2939273
9	0x3eb3b01e	0.35095304
10	0xbc157da2	-0.0091241915
11	0x3eb707a8	0.3574803
12	0x3e9a03d3	0.30081043
13	0x3eb0d88a	0.34540206
14	0xbacf1bc5	-0.0015801123
15	0xbb8fe408	-0.004391197

convs.0.weight f4 [16, 16]
0	0xb329049e	-3.9352578e-08
1	0xb625b003	-2.4689368e-06
2	0x36d9bb03	6.488875e-06
3	0x35f65274	1.8352425e-06
4	0xb318a0e8	-3.55366e-08
5	0x358795db	1.0101897e-06
6	0x335c17e4	5.124447e-08
7	0xb32eb93c	-4.0681e-08
8	0xb1144ca3	-2.1580397e-09
9	0x32493dbc	1.1713777e-08
10	0xb39480c8	-6.915212e-08
11	0x34af1c9b	3.2617103e-07
12	0xb5235e72	-6.085967e-07
13	0xb2a82ad2	-1.9577246e-08
14	0x331caa55	3.6476496e-08
15	0x36b06a47	5.257581e-06
16	0x38510763	4.9836362e-05
17	0xbed5ab77	-0.4173238
18	0xbf35f5c1	-0.71078116
19	0xbf2d043e	-0.675846
20	0x3f16b684	0.58872247
21	0xbee81378	-0.45327353
22	0x3f68dace	0.9095887
23	0xbe37a092	-0.17932346
24	0x3f700b1f	0.9376697
25	0xbf2de5c8	-0.67928743
26	0x3eefcf9b	0.46838078
27	0xbc641e69	-0.013923266
28	0x3f15fbe7	0.585875
29	0x3f9b7bf3	1.2147201
30	0x3f45dc36	0.7728914
31	0xbf163349	-0.58672005
32	0xb55dbbe4	-8.260233e-07
33	0x3d940087	0.07226663
34	0x3d1ddf83	0.038543236
35	0x3dfe3e5f	0.1241424
36	0xbc89afca	-0.016807456
37	0xbd37022e	-0.044679813
38	0xbc262b92	-0.010142224
39	0x3c7dff57	0.015502772
40	0xbd9c9a57	-0.076466255
41	0x3c5aff51	0.013366536
42	0xbd18a296	-0.03726443
43	0xb909c069	-0.00013137017
44	0xbd898a08	-0.067157805
45	0x3db3041c	0.08741018
46	0xbcd7f100	-0.026360035
47	0xbd071486	-0.032978557
48	0x32640c86	1.3274194e-08
49	0xbb4fab1d	-0.0031687685
50	0x38841208	6.297609e-05
51	0x3a092d0f	0.00052328495
52	0xb9b6a2fe	-0.00034835184
53	0x38150a25	3.5533816e-05
54	0x399514e0	0.00028435048
55	0xba1ae38d	-0.00059085415
56	0xba0b3d18	-0.0005311533
57	0x391658c3	0.00014338181
58	0xbb55825c	-0.003257892
59	0x352d2968	6.4507776e-07
60	0xb962fed8	-0.00021647976
61	0xbc10bd02	-0.0088341255
62	0xb9df469e	-0.00042586488
63	0x3aaa32ef	0.001298515
64	0x3998bf45	0.00029134206
65	0x3ee39220	0.44447422
66	0x3f2fabba	0.6862141
67	0x3ccf0276	0.025269728
68	0xbe808e29	-0.2510846
69	0x3ec2e5e8	0.3806603
70	0xbd949481	-0.07254887
71	0x3f2b2153	0.66847724
72	0x3e5137c7	0.20431434
73	0x3ec8b6f4	0.39202082
74	0x3d71fa85	0.059076805
75	0xbd0396a8	-0.0321261
76	0x3eb35bb9	0.35030916
77	0x3f10b7b3	0.565303
78	0x3e9db22d	0.308
79	0x3eaba825	0.33526722
80	0x39b8024d	0.0003509693
81	0x3f17319b	0.59060067
82	0x3efeabee	0.49740547
83	0x3e45941a	0.19294778
84	0xbf681fdc	-0.90673614
85	0x3ef4e2a8	0.47829175
86	0xbf73f6de	-0.95298564
87	0x3f2e6a4b	0.6813094
88	0xbf121710	-0.5706644
89	0x3d29bd64	0.041440383
90	0xbd0374a6	-0.032093666
91	0xbd1e521f	-0.038652536
92	0xbda06f38	-0.07833713
93	0xbeb24af5	-0.34822813
94	0xbd87e1db	-0.066348754
95	0x3e409dba	0.18810168
96	0x3b76abf2	0.0037639108
97	0x3f3eeb3f	0.7457771
98	0x3f555b0d	0.8334206
99	0x3edf2464	0.4358245
100	0xbeea933f	-0.45815465
101	0x3d50369d	0.050833333
102	0xbf225c74	-0.6342232
103	0x3f23360d	0.6375435
104	0xbe5aece1	-0.21379425
105	0x3c84e6b2	0.016223285
106	0x3cef061d	0.02917772
107	0xbcf552d7	-0.029946728
108	0x3f0c0e37	0.5470919
109	0x3de0ce3c	0.10976836
110	0xbe2a6239	-0.16639031
111	0x3e48e715	0.19619401
112	0x3b8af27b	0.0042403317
113	0xbe75c4fd	-0.24000926
114	0x3cc62b8e	0.02419069
115	0x3e7b6928	0.24551833
116	0x3f397046	0.7243694
117	0x3ea30b79	0.3184469
118	0x3e60e1c6	0.21961126
119	0xbe96b7a0	-0.2943697
120	0x3d17a0a6	0.03701844
121	0x3eddaecb	0.4329742
122	0xbd830762	-0.063978925
123	0xbd50037b	-0.05078457
124	0xbe453b6c	-0.19260949
125	0x3ec730b7	0.38904354
126	0xbdffb1ab	-0.12485059
127	0x3c4aba61	0.012373538
128	0xba836f64	-0.0010027704
129	0xbe8c3662	-0.2738524
130	0x3cbd21d2	0.023087416
131	0x3d9b5912	0.07585348
132	0x3f31a1b6	0.69387376
133	0xbce92eef	-0.028464762
134	0x3f33b187	0.7019276
135	0xbedc19ad	-0.4298834
136	0xbe0d82ce	-0.1381943
137	0x3efb9cb3	0.4914299
138	0xbdf7ed15	-0.12105767
139	0xbd6b23cb	-0.05740718
140	0xbed53ed3	-0.41649494
141	0xbf0ef0c6	-0.5583614
142	0xbe5feb1c	-0.21867031
143	0xbc7dfd87	-0.01550234
144	0xba80bac2	-0.0009821283
145	0x3e8dbeeb	0.2768472
146	0x3e5495a0	0.20760202
147	0xbf310c2a	-0.69159186
148	0x3daf1781	0.08549405
149	0x3ebaa644	0.36454976
150	0x3f30571d	0.68882924
151	0xbd42a996	-0.04752501
152	0x3f71f374	0.94512105
153	0xbeb9ad53	-0.36265048
154	0x3ea2812e	0.3173918
155	0xbcc9034c	-0.024537705
156	0x3f2e1c05	0.68011504
157	0x3f634d9d	0.88790303
158	0x3f6ebd20	0.9325733
159	0xbe6b55c6	-0.22981939
160	0x33486670	4.6659295e-08
161	0xb322f96e	-3.794542e-08
162	0x314a8483	2.9470193e-09
163	0x3266a30c	1.3424835e-08
164	0x330a97ad	3.2268577e-08
165	0xb3796dc9	-5.807468e-08
166	0xb2d4a2b4	-2.4754037e-08
167	0x345d366a	2.0602025e-07
168	0xb472b0e2	-2.2602356e-07
169	0x34256a41	1.5405477e-07
170	0xb3fe3f85	-1.1839351e-07
171	0x34112be8	1.352015e-07
172	0x362dfbe5	2.592563e-06
173	0x338ae7d0	6.468292e-08
174	0xb200f6c1	-7.506686e-09
175	0xb29cca2d	-1.8252729e-08
176	0xb9ef2963	-0.00045616468
177	0x3f012cbf	0.504589
178	0x3f0d1e03	0.5512392
179	0xbeab209f	-0.33423325
180	0xbf11c3af	-0.56939214
181	0x3f4f16aa	0.8089396
182	0xbf54db0f	-0.83146757
183	0x3e6f3cec	0.23363084
184	0x3da43dcd	0.080196
185	0x3e80028b	0.2500194
186	0xbd31f889	-0.043449912
187	0xbd10a015	-0.035308916
188	0x3ea85bb6	0.3288247
189	0xbdea4624	-0.114391595
190	0x3da2742a	0.07932313
191	0x3eb999c3	0.36250123
192	0x374ff8f4	1.2396125e-05
193	0x3f0f0143	0.558613
194	0xbf4aa2af	-0.79154485
195	0x3f91b125	1.1382185
196	0x3f6fe6fc	0.9371183
197	0xbf9d9af2	-1.231291
198	0xbe8ee7d2	-0.2791124
199	0x3f5c0db5	0.85958415
200	0xbe752222	-0.23938802
201	0xbf3c6901	-0.73597723
202	0x3f1a31e3	0.6023237
203	0xbc5f4515	-0.01362731
204	0x3f6da926	0.92836225
205	0xbe4b77cd	-0.19869919
206	0x3f1bf0c3	0.6091425
207	0xbf529f88	-0.82274675
208	0x38e90d8d	0.0001111283
209	0xbd8cbe0d	-0.06872187
210	0xbf45fb6e	-0.77336776
211	0x3f7c594d	0.9857376
212	0x3f6e4cc9	0.93085915
213	0xbf83498c	-1.025682
214	0x3d7f27a5	0.062293667
215	0x3f5f42f1	0.8721152
216	0x3d9ea13f	0.07745599
217	0xbf542388	-0.82866716
218	0x3e9ffa94	0.31245863
219	0xbcdcb4e1	-0.026941719
220	0x3f5d28b1	0.86390215
221	0x3dce3910	0.100694776
222	0x3e448ad4	0.19193584
223	0xbee75eeb	-0.45189604
224	0x33ab370d	7.972822e-08
225	0xb52febf0	-6.5535914e-07
226	0x3088925d	9.936901e-10
227	0x347e2b3c	2.3671322e-07
228	0x3ac8db78	0.0015324196
229	0xbc9c0456	-0.019045036
230	0x33e76d38	1.07766425e-07
231	0xb303efac	-3.0718795e-08
232	0x35e6c6a8	1.7194152e-06
233	0x3b4fcb34	0.0031706812
234	0xb2c0bd2a	-2.2437764e-08
235	0x31b22164	5.184278e-09
236	0xb6034ecb	-1.9566385e-06
237	0x3becad12	0.00722278
238	0x3bd1382e	0.006384871
239	0x33dad39f	1.018991e-07
240	0xb3cfdf24	-9.679778e-08
241	0x3180faec	3.753817e-09
242	0xb2ad7879	-2.0194635e-08
243	0xb65bf00d	-3.277327e-06
244	0x3353276b	4.9163116e-08
245	0xb8e13f13	-0.000107405845
246	0xb437c8ca	-1.711625e-07
247	0xb2986472	-1.7740806e-08
248	0xb49f91ff	-2.9722284e-07
249	0x3292d83a	1.7094965e-08
250	0x342c1523	1.6026438e-07
251	0x320fb6b1	8.365235e-09
252	0xb5259478	-6.168334e-07
253	0xb6b5d5f7	-5.419129e-06
254	0x32440a4c	1.1411043e-08
255	0x32098cb2	8.00644e-09

convs.0.bias f4 [16]
0	0xbd0a6363	-0.03378619
1	0x3e2b230b	0.16712587
2	0x3d9848de	0.07435773
3	0xbed90729	-0.42388275
4	0x3bf5c917	0.0075007784
5	0x3e54d3d3	0.2078393
6	0x3e3a7d9a	0.18211976
7	0x3f003ab4	0.50089574
8	0x3f2f2eab	0.68430585
9	0xbe4424fa	-0.1915473
10	0x3e7f658a	0.24941078
11	0xbc36f890	-0.01116766
12	0x3f050be6	0.5197128
13	0x3ed37fd9	0.41308478
14	0x3f034098	0.5127044
15	0x3dd3085f	0.10304331

ffn.0.weight f4 [6, 16]
0	0xbad7fee1	-0.0016479158
1	0x3f1cbc08	0.6122441
2	0x3eb1ca8b	0.3472484
3	0x3e85fe50	0.26170588
4	0xbea92d3a	-0.33042318
5	0x3d6bc943	0.057564985
6	0xbda80c48	-0.082054675
7	0x3e9cc83b	0.30621514
8	0xbf81f372	-1.0152419
9	0x3dd51b36	0.10405581
10	0xbe32971c	-0.17440456
11	0x3d15cef4	0.03657432
12	0xbec6789b	-0.3876389
13	0xbe90a21c	-0.2824868
14	0xbeda6703	-0.42656717
15	0x3e9e60be	0.30933183
16	0x3b5e1b74	0.0033890875
17	0x3d612edc	0.05497633
18	0xbf1ffa55	-0.6249135
19	0x3f78d882	0.97205365
20	0x3ebb0c74	0.36532938
21	0xbf59e426	-0.8511375
22	0xbdc997a1	-0.09843374
23	0x3f891f91	1.0712758
24	0xbfb162fe	-1.3858335
25	0xbeaf0c65	-0.34189144
26	0x3e95dafa	0.29268628
27	0xbcf457a1	-0.029826941
28	0x3ed9dc9a	0.42551118
29	0xbfab3563	-1.3375667
30	0xbefe23d4	-0.4963671
31	0xbf2c7289	-0.67362267
32	0xb934b8e8	-0.0001723502
33	0xbf30048e	-0.6875695
34	0xbf448e08	-0.7677922
35	0xbeb901dc	-0.3613423
36	0x3e8ae2a5	0.2712604
37	0xbea27da4	-0.3173648
38	0x3f33aa18	0.7018142
39	0xbf4d3fdb	-0.8017556
40	0x3f86a2ce	1.0518434
41	0xbeb6abc3	-0.3567792
42	0x3e8a9752	0.27068573
43	0xbd7e06a6	-0.06201806
44	0x3e3ebf1e	0.18627593
45	0x3f500975	0.8126443
46	0x3f347018	0.7048354
47	0xbf313a6d	-0.69229776
48	0xbb22a640	-0.002481833
49	0x3f411227	0.75418323
50	0x3eeedd21	0.46653083
51	0xbf5109b3	-0.81655425
52	0xbf32e824	-0.6988547
53	0x3ebf9cfb	0.37424454
54	0xbe9f45b9	-0.31107882
55	0x3fc5a267	1.5440186
56	0x3f0ae418	0.54254293
57	0xbf16ab5a	-0.5885521
58	0x3f5a8513	0.85359305
59	0x3c1a7fa7	0.009429849
60	0x3f089d37	0.5336489
61	0x3f0ed696	0.5579618
62	0x3f2a945f	0.66632646
63	0x3f46b476	0.7761911
64	0x3acfc28c	0.0015850826
65	0xbdb1f4c1	-0.08689261
66	0x3f1f9e04	0.6235049
67	0xbea18026	-0.31543082
68	0xbe9ab4d5	-0.3021609
69	0x3f4bf5b3	0.7967178
70	0xbd244479	-0.040104363
71	0xbf3ef35c	-0.74590087
72	0xbf699b30	-0.9125242
73	0x3f33a152	0.7016803
74	0xbf3800be	-0.7187613
75	0x3d4d1802	0.050071724
76	0xbf5c6e1d	-0.8610552
77	0xbf98ec94	-1.1947198
78	0xbf8f093d	-1.1174694
79	0x3f853731	1.0407468
80	0x38f4927c	0.000116621115
81	0xbf4680e8	-0.77540445
82	0x3e2d7848	0.16940415
83	0xbe44dbbb	-0.19224446
84	0x3e133f96	0.14379725
85	0x3d9241cf	0.07141458
86	0x3f2b0446	0.66803396
87	0xbfd40cc9	-1.6566402
88	0xbe8eab0d	-0.27864876
89	0x3e9724f7	0.2952039
90	0xbe42e71f	-0.19033478
91	0x3bf572a8	0.0074904747
92	0xbf7afce0	-0.98042107
93	0xbf61b5e3	-0.8816816
94	0xbf1577d2	-0.58385956
95	0xbf2e2b36	-0.68034685

ffn.0.bias f4 [6]
0	0xbe4482fa	-0.19190589
1	0xbe8216a1	-0.2540789
2	0x3ebe9929	0.37226227
3	0x3f023ab4	0.50870824
4	0x3d4542f0	0.04815954
5	0xbe8cfbbf	-0.27535817
