attack_checkpoints/cora/20/GCN_2l/GCN_2l_best.ckpt (torch, 95851 bytes, 6 tensors)

conv1.weight f4 [1433, 16]
00000000: 9b8c b7bd 8714 9ebd 25ff e63c 7e32 af31
00000010: 629d 983d d696 a5bd e628 a7bc c2a7 8631
00000020: fca9 723d a3f6 7e3d 7c7d 0731 e118 a5b0
00000030: 49af 5039 4a6a c43d 26e8 54b1 7cdc 0abe
00000040: 1858 aa3c cdd6 fd3d 02e3 283e d2ce 5fb1
00000050: f046 2fbd 3e40 e6bd 05e5 e33c 87de a731
00000060: e3b1 15be 9826 553e 11ba 9d31 561b ac31
00000070: cd98 103d a018 20bd 63cf f0b1 d2d1 2dbd
00000080: c563 c2bd c89c e3bd 6c49 de3d 500a 942f
00000090: 7367 3bbd dfc8 c7bd 8ffc a9bd ec74 b1b1
000000a0: f1aa a63e 86e9 5b3e 2528 fb31 7c0e 57b1
000000b0: 910c 43bd 4ce0 08bc b960 6231 98f0 08be
000000c0: 52a9 483e c50f 713e 45ba df3c 7084 74b1
000000d0: 9370 be3b ec86 1a3e cf56 103e f445 04b0
000000e0: 9282 013e 7cc7 163d 039a 13b3 677d b331
000000f0: 9137 773d ba07 a2bc ee74 c530 f600 733e
00000100: e807 a3be 9ccc bcbe 0535 393e 7c82 8030
00000110: dc7d 383e 4971 8bbe eede 82be dc12 02b2
00000120: 4c46 b83e 37ff 853e 803b d531 fdc3 1fb2
00000130: f9f4 74bd 5673 623e bbc5 0a32 3cee a2be
00000140: 9273 d9bd acee babd baaa 863d 8f2a 97b1
00000150: ec3e 65bd ce0d 17be 361b 7bbd 9e91 0132
00000160: ab8a 7b3d f751 8f3d 92a7 92af 7652 8db1
00000170: 6a6e 98bd 4da7 0bbd 75e6 dfb1 fd7b f3bd
00000180: c30f 38be f86f e7bd 19b9 bb3e 1d0c b3b1
00000190: da07 b7bd b3c5 6bbe b8a7 dcbd 045e d330
000001a0: 7731 bc3d c944 b73e 7cce 3231 f8ca b5b1
000001b0: b2bb bcbd 842f 61bd 79eb 2531 6457 60be
000001c0: af5d a03d 64ef c73d 5236 b53d 80b2 33ad
000001d0: e599 b0bd a0f3 b8bd a536 313c 3205 b3b1
000001e0: 3a07 9abd 92e1 e23d 5a9e 4630 fd07 4731
000001f0: 402c 04bb 5cca 00be 1410 a1b0 c3d9 733d
00000200: 8b69 e93d 13f1 183e b182 acbc a44f 4b31
00000210: 85ac f73d 61ae 223e cba7 153e 9082 b131
00000220: 25c3 03be c274 ccbc b41a dc31 8ae6 2d32
00000230: 7699 f83d ce09 fc3d 08fe a131 a69c 753d
00000240: eada 4abd 62b5 6ebc 783f 053e 7808 be30
00000250: 4291 adbd b670 4fbe db8b 67bd dafb 3d31
00000260: 5500 a2bc edaa 243e 718b fdb1 3079 6f30
00000270: 0189 39bd 56cb 9abd 3cd1 d931 4be6 b7bd
00000280: d4ac b43d 07c9 fc3d 6288 9cbc 26e1 f630
00000290: 71ef 1a3d d756 b13d bb00 b33d 8702 0231
000002a0: 741c d6bd 3ac3 a3bc 9020 07b1 b88e 83b0
000002b0: 8515 893d 7008 b53c 70c7 6cb1 c82a 703d
000002c0: 3e8b 00bc 363e 99bb fd0e a33c 4fe7 1bb2
000002d0: 5590 303c b97a 67bc 4fa7 b23b 799b 4131
000002e0: d01b ffbc cea7 053c 90e5 a731 9d0a 5e31
000002f0: 4620 00bc 2624 3f3c 9362 ceb1 514f 8bbc
00000300: cd18 65bd 98c6 87bd 40da 1f3d 7424 a0b1
00000310: d1a3 c93c 1438 b0bc 3a0e cbbc f575 56b0
00000320: f042 7f3d cf43 273c 3fcb 8631 9df9 5831
00000330: b2c5 4abd b17c 1f3d 1452 13b2 35d0 81bd
00000340: d4db c23d 732c 243e cf60 a03b 16b9 f431
00000350: 460b 9ebb ddb3 803d 7e99 9b3d 8c18 0532
00000360: 03db b63c 7264 663d 9318 ee31 2f8a 8cb1
00000370: e95f 8b3d 89d7 04bc 9300 b731 93a5 ec3d
00000380: 7520 ce3d abd6 e83d 33ef 31bd 7b1b bbb0
00000390: 5550 c03c 1f59 8e3c 94c8 263d 5ce9 a031
000003a0: 8411 89bd 80dd ae3d 8a29 9fb0 281d 0eb1
000003b0: d1cf 913d 5c5d e73c b2e6 deb0 7520 1b3d
000003c0: 9ad5 73bd 2bc4 64bd a966 e63c 4af1 2d31
000003d0: 2507 4c3d 54a0 9abc 23a0 26bc 540b 0431
000003e0: fed3 c73c 7238 aebc 828a 91b1 1ef5 14b1
000003f0: f795 49bc fbb6 673d 9ce6 3531 52dd 7dbd
-0.08962365 -0.07718759 0.028197834 5.0989106e-09 0.074518934 -0.0808541 -0.020405244 3.918985e-09
0.05924414 0.06224693 1.9716415e-09 -1.2012401e-09 0.00019901725 0.095905855 -3.0982021e-09 -0.1356067
0.02079396 0.123944856 0.16492847 -3.2568335e-09 -0.04279226 -0.11242722 0.027819166 4.885638e-09
-0.1461864 0.20815504 4.5904547e-09 5.0089666e-09 0.035301972 -0.039085984 -7.0084964e-09 -0.04243643
-0.09491686 -0.11113888 0.10853848 2.692837e-10 -0.045752954 -0.0975511 -0.08300125 -5.1646705e-09
0.32552293 0.21475801 7.3096253e-09 -3.1294851e-09 -0.047619406 -0.008354258 3.2942309e-09 -0.13373029
0.1959584 0.23541172 0.0273105 -3.5581955e-09 0.0058117597 0.15090531 0.14095615 -4.812073e-10
0.12647465 0.036811337 -3.4366177e-08 5.2238422e-09 0.060355727 -0.019779075 1.436687e-09 0.23730835
-0.3184197 -0.36874855 0.18086632 9.350312e-10 0.18016762 -0.27234867 -0.25560707 -7.571284e-09
0.35991132 0.26171276 6.2058803e-09 -9.299581e-09 -0.059803937 0.2211431 8.077616e-09 -0.31822383
-0.106177464 -0.09127554 0.06575532 -4.3995168e-09 -0.05596821 -0.1475136 -0.061305247 7.541898e-09
0.06141154 0.069980554 -2.667631e-10 -4.113015e-09 -0.07442935 -0.034095097 -6.516354e-09 -0.11888883
-0.17974763 -0.11300653 0.36664656 -5.2109628e-09 -0.089370444 -0.23024635 -0.10774177 1.5378991e-09
0.09189122 0.35794666 2.6019782e-09 -5.290868e-09 -0.092154875 -0.054976955 2.414451e-09 -0.21908337
0.07830369 0.09762457 0.088482514 -1.0214607e-11 -0.08623103 -0.09030843 0.010816251 -5.2101763e-09
-0.075209096 0.110781804 7.225701e-10 2.8962852e-09 -0.0020167977 -0.12577194 -1.1718861e-09 0.059533846
0.11397084 0.14935713 -0.021058412 2.9585658e-09 0.12093452 0.15886833 0.14614789 5.1662212e-09
-0.1286741 -0.024958018 6.4058785e-09 1.0122344e-08 0.12138645 0.123065576 4.7145967e-09 0.059963845
-0.04952518 -0.014569612 0.13012493 1.3826726e-09 -0.08474971 -0.2025784 -0.05652986 2.764628e-09
-0.019775549 0.16080828 -7.3791218e-09 8.711991e-10 -0.045296673 -0.075583145 6.3393184e-09 -0.08979472
0.08822027 0.123430304 -0.019108001 1.7962847e-09 0.037826005 0.086591415 0.08740374 1.8918926e-09
-0.10454646 -0.019990552 -1.9663595e-09 -9.572068e-10 0.06693558 0.02209875 -3.4455887e-09 0.05863455
-0.007845698 -0.0046766056 0.019904608 -9.074781e-09 0.010776599 -0.01412838 0.0054520736 2.8173572e-09
-0.031141192 0.008157684 4.886438e-09 3.2311285e-09 -0.007820195 0.011666333 -6.0065957e-09 -0.017005594
-0.055931855 -0.066296756 0.0390265 -4.660757e-09 0.024614247 -0.021511115 -0.024787057 -7.8020373e-10
0.062319696 0.010209038 3.9230197e-09 3.1574026e-09 -0.049504943 0.038937274 -8.575189e-09 -0.063385405
0.09514585 0.16032581 0.004894353 7.1223765e-09 -0.0048231212 0.06284306 0.07597636 7.7472e-09
0.02232123 0.056248136 6.9295054e-09 -4.090246e-09 0.06805403 -0.008108028 5.3260663e-09 0.11555018
0.100647844 0.1136907 -0.04344101 -1.3613851e-09 0.023475805 0.01737648 0.04071863 4.6831428e-09
-0.06692794 0.085383415 -1.1580579e-09 -2.0680293e-09 0.07119716 0.02824276 -1.6218193e-09 0.03787275
-0.05952988 -0.055851143 0.028125124 2.531197e-09 0.0498115 -0.018875279 -0.0101700155 1.9214967e-09
0.024393078 -0.02126715 -4.235802e-09 -2.1676168e-09 -0.012303821 0.05657099 2.6470053e-09 -0.061978646

conv1.bias f4 [16]
00000000: a5eb c03e 732b bf3e c32d 46be 4f54 e2bb
00000010: 47fe 363e 402a 9e3e 1fb2 943e 382e 28bb
00000020: ac94 82be 0a69 e6bc c218 d9bb f035 00bc
00000030: 0262 a13e 1664 ef3d 37bf 1fbc 03f4 b23e
0.37679783 0.37337837 -0.19353394 -0.006907023 0.17870437 0.3089161 0.29042146 -0.0025662314
-0.25504053 -0.028126258 -0.006625266 -0.00782536 0.31520087 0.11689012 -0.009750179 0.3495179

convs.0.weight f4 [16, 16]
00000000: ae6c c63e 0ab7 f5be 46dd 493f 3cfc efbe
00000010: 12ea 37b0 16c9 d83e a4f1 ec3e edb0 16b8
00000020: b40d 1c3f 6384 bf3e 8e83 3b3f e31d 84bb
00000030: 7cc4 cc3e 73f8 05bf 2d76 8cbf d31c 903f
00000040: 30d0 843e 091e 26bf ed5d 4f3f b1d7 debe
00000050: 2ffd 6935 ed73 723f 5886 393f ffb6 133b
00000060: a6dd 4a3d e62b fc3e 474e 753e 2624 ac3a
00000070: 1d95 da3d 0d1c 02bf 55f8 83bf 646b 643f
00000080: 7de0 c3be ccf4 a7be 3d98 debe a794 593f
00000090: 6c3a 85b5 e5b2 0c3e f3a5 43bf e983 ca37
000000a0: cdba 18bf 3a86 afbd 0649 bcbe 99be 52bc
000000b0: 061b a0be c7b2 b43e 3844 4f3f 1254 853e
000000c0: 0687 b136 4ed2 95b1 c2a8 0136 1c51 78b4
000000d0: 77a7 f231 4a3b 0932 a73c 2bb4 9b33 5c35
000000e0: f6b8 52b2 eeb2 6bb3 b237 8f34 d86b b1b5
000000f0: 7c80 8835 5c23 0d33 76d8 07b4 4d03 edb4
00000100: 2a26 1dbe dfee f53e 5e3c 383f ed56 41bd
00000110: c07b 12b3 c36b 113f 6aa9 163f b891 a1b9
00000120: c10b ec3e e9ae 513e 2fa0 f03e 580a 95bb
00000130: 12a6 20bf 2e2a 52be 6675 a93e 9005 92be
00000140: 9aef a23e 0036 703f ec1c 853f 25a6 98bf
00000150: 0b07 04b3 8bc2 e43e 89a5 193f b69a b836
00000160: 141a 8b3f 3faa 913f 94d5 853f db6b 49bb
00000170: 3440 183d e158 00bf 694d 6abf 6049 323f
00000180: eafc c73d 095a babe 8f7b 463f 3faf 96bd
00000190: c48a 603a 6e8c f03e 129c 1a3f 807b a2b9
000001a0: b752 3c3f ed26 1d3f 5463 cf3e 50b4 9938
000001b0: 4c15 3abe ecd8 61be 0c38 98be ae69 ba3e
000001c0: 83d4 14b3 e91b 9d33 7be0 ddb6 6026 5b36
000001d0: 7c1d 03b2 c987 4ab5 b04a 7eb5 b04d 05b4
000001e0: f659 9cb6 db0c 46b3 1c30 1832 651b b434
000001f0: ec3e eab2 eeb8 1f31 b225 f631 acda c231
00000200: 8b81 353e eb33 6b3f 52ca f3be 1712 843e
00000210: c9c5 a1ba 5fa7 06bf c1b3 12bf 5b78 74ba
00000220: 9cf1 2e3e ba4f 65be 69a6 5abe 7ca6 90bc
00000230: 2518 b73e 1057 3e3f 8ecf 443e cf9a 96be
00000240: 6bd0 013e c750 07bf f706 1fbf de16 513f
00000250: 7fd3 30b6 ab8f 35bf 1229 913d de6b 9037
00000260: cf3c 3dbf bd9b 50bf a4f5 e5be 6a44 6bbc
00000270: a24a 0b3f c3dc 283f bdb3 5d3e 4560 91be
00000280: 02aa 9631 4ada 0834 342d 0c35 71ce 9a34
00000290: e91b 4fb3 6711 7d32 177a 02b2 3785 5cb4
000002a0: b5f2 41b7 2721 8633 d4d4 9a36 87f3 9d31
000002b0: 8969 fc32 5fc1 bbb2 cbf3 de34 570f 7335
000002c0: 0c32 20b3 6bc9 9db2 61bd 29b1 0c56 c8b1
000002d0: cef3 8735 807e feb2 cc61 9931 0621 42b3
000002e0: 0a4c 06b2 68a3 33af 99ab 9e36 9ea9 a034
000002f0: 600c 0e32 34b7 28b4 cc86 cf33 b450 abb1
00000300: 9d48 303e 1a43 34be aa77 3a3f b960 c8be
00000310: a7b5 02b5 df07 283f 7b9b 6d3f e884 e23b
00000320: d837 ff3e 497e c0bc 65d6 253f 6081 a83a
00000330: 7ec1 cbbd bbbd 48be cb99 a83c c13a 893e
00000340: 6b60 5dbe eda5 dd3e b247 573e 7f6c 5bbd
00000350: 38af 2eb4 b4ad 0b3e a79b 2a3f 1d11 11b8
00000360: 698c 193e b602 e33e 33c4 183f 62f9 7fbb
00000370: 1f5c 11bf 6304 2dbe 4347 be3e 02d9 e9be
00000380: 643a 78b2 eef5 1e33 a435 8f34 31e7 de31
00000390: 39e5 a13a 7e8b ca33 4f4e 8eb3 7501 92b6
000003a0: dc0c 3632 e6de 37b3 c69f d837 cb9f 2932
000003b0: e9f7 5bb3 8b3c f136 2e72 3a38 805d a5b3
000003c0: be56 cc3e 5799 fabd 0f57 d93e da9b 4ebf
000003d0: ec8d 6cb4 6651 373f 03a7 6dbd 69e5 c6b8
000003e0: 63e8 7c3f 7b24 243f b86c d93e a158 66bb
000003f0: 8ee3 8e3e 3f9c 08bf b28d b0bf 51a0 af3f
0.3875479 -0.4799121 0.7885326 -0.46872127 -6.6907646e-10 0.42340916 0.46278107 -3.5927562e-05
0.6095841 0.3740569 0.7324761 -0.004031883 0.39993656 -0.5233223 -1.0973564 1.1258796
0.25940084 -0.6488958 0.81002694 -0.43523934 8.7167695e-07 0.9470814 0.7247062 0.0022539494
0.049527787 0.49252242 0.23955642 0.0013133332 0.10672972 -0.5082405 -1.031016 0.89226365
-0.38257208 -0.32803953 -0.43475524 0.8499245 -9.926275e-07 0.13740118 -0.76425093 2.4141702e-05
-0.59660035 -0.085705236 -0.36774462 -0.012862825 -0.31270617 0.35292646 0.8096347 0.26040703
5.29073e-06 -4.3603796e-09 1.9320728e-06 -2.3126307e-07 7.0621655e-09 7.98793e-09 -1.5947681e-07 8.203148e-07
-1.2265664e-08 -5.4877937e-08 2.667635e-07 -1.3218914e-06 1.0170183e-06 3.286128e-08 -1.2651603e-07 -4.4147092e-07
-0.1534659 0.48033807 0.71967113 -0.04720204 -3.4105824e-08 0.56805056 0.58852255 -0.00030816882
0.46102718 0.20476879 0.4699721 -0.004548352 -0.62753403 -0.20523903 0.3309738 -0.2851987
0.31823426 0.938324 1.0399451 -1.1925703 -3.074005e-08 0.44679675 0.6001821 5.501638e-06
1.0867333 1.138008 1.0455804 -0.0030734453 0.037170604 -0.5013562 -0.9152437 0.6964321
0.097650364 -0.36396816 0.77532285 -0.07357644 0.00085655996 0.4698214 0.60394394 -0.00030991063
0.7356371 0.6138752 0.4050547 7.329194e-05 -0.18172187 -0.22055405 -0.2973026 0.36408752
-3.4652214e-08 7.315959e-08 -6.612446e-06 3.265588e-06 -7.6319076e-09 -7.544846e-07 -9.473106e-07 -1.2414853e-07
-4.659635e-06 -4.611216e-08 8.858503e-09 3.3547545e-07 -2.7269799e-08 2.3242666e-09 7.1638278e-09 5.6710032e-09
0.17725198 0.91876096 -0.47615296 0.2579505 -0.001234227 -0.5259914 -0.5730553 -0.00093257957
0.17084354 -0.22393695 -0.21352543 -0.017657511 0.35760608 0.74351597 0.19219801 -0.29414985
0.12677161 -0.5285763 -0.6212 0.8167552 -2.634915e-06 -0.70922345 0.07087912 1.7216367e-05
-0.7392091 -0.8148764 -0.4491397 -0.014359573 0.54410756 0.65961856 0.21650596 -0.2839376
4.384902e-09 1.27454e-07 5.2219843e-07 2.883494e-07 -4.8221327e-08 1.4730495e-08 -7.594756e-09 -2.053756e-07
-1.1560206e-05 6.2458916e-08 4.614334e-06 4.5969872e-09 2.9384653e-08 -2.18576e-08 4.1528105e-07 9.0546877e-07
-3.729842e-08 -1.83688e-08 -2.4700386e-09 -5.8305485e-09 1.012924e-06 -2.9627017e-08 4.4640043e-09 -4.519918e-08
-7.817116e-09 -1.6338009e-10 4.7287435e-06 2.9925735e-07 8.268302e-09 -1.5712868e-07 9.663708e-08 -4.98593e-09
0.172152 -0.17603722 0.7283884 -0.39136294 -4.869311e-07 0.6563701 0.9281537 0.0069128163
0.49847293 -0.023497717 0.64780265 0.001285594 -0.09949015 -0.19603626 0.020581147 0.26802638
-0.21618812 0.43290654 0.21023443 -0.053570267 -1.6268757e-07 0.13640481 0.66643757 -3.4586632e-05
0.14994968 0.44338006 0.59674376 -0.0039058556 -0.5678119 -0.16896205 0.37163743 -0.45673376
-1.4448776e-08 3.7010913e-08 2.6674854e-07 6.487334e-09 0.0012351639 9.4317315e-08 -6.6266345e-08 -4.3513087e-06
1.0596718e-08 -4.2810733e-08 2.5823607e-05 9.873427e-09 -5.1215384e-08 7.189408e-06 4.4452194e-05 -7.700419e-08
0.3990993 -0.122362785 0.42449233 -0.8070656 -2.2030844e-07 0.7160858 -0.058020603 -9.484107e-05
0.98792094 0.64118165 0.42465758 -0.0035148042 0.27907985 -0.5336341 -1.3793242 1.37208

convs.0.bias f4 [16]
00000000: 467b 8fbf 40aa 463e f502 7d3e 0ff7 f83d
00000010: 3a8b c2bc 908d 1b3e 5a70 1a3e 2041 04bd
00000020: 62c7 263e dbaa ac3e 6aa9 c53d 8c7a ffba
00000030: b34b 5ebf 407b 703d db83 253d 861c 3e3d
-1.1209495 0.19400883 0.2470816 0.12156498 -0.023748029 0.1519072 0.15081921 -0.03228867
0.16286996 0.33724102 0.09651454 -0.0019491478 -0.8683426 0.05871129 0.04040895 0.04641392

ffn.0.weight f4 [7, 16]
00000000: 3956 533e 96b3 0e3f 765f 10bf 1e5a ff3e
00000010: 6839 dcb1 7393 34bf 9ff6 bbbe e42c 91b1
00000020: 038a 43be 9bf0 83bf 3e39 cebd db9e 533b
00000030: 5afb 94be b555 d93e 070b 383f 8fa9 cabf
00000040: e080 883f 49a9 89be 99e8 95bf 9497 7b3f
00000050: 4a47 fbb2 3a62 45bf 34a2 35bf 98d6 c236
00000060: b95c 93bf 5015 b4bf 4efe e8be 98c1 213c
00000070: 4af5 6e3f 2a1f 0a3f 4c6b 8f3f b31e a0bf
00000080: f27d 8ebe b6fc 29bf 5f89 073f 6049 35bf
00000090: 9524 69b8 39e2 2d3f de5c 383f 3587 03bb
000000a0: 0e18 2a3f ff59 373f 7c55 353f 8ca1 c4bb
000000b0: 0756 663d 1ae4 4ebf 747d 19bf 093c 4c3f
000000c0: 4054 cebe 6e65 4b3f 07d3 de3e 8a44 42bf
000000d0: 01ff aa32 4a43 4abe dd15 363f 2c19 9fb8
000000e0: 00d9 803f b7d1 233f 051d 263f 7c40 e2bb
000000f0: 4624 c0be fd4e 973c 0964 03bf 7579 3fbf
00000100: 5162 f83d 0177 41bf 2b1b 06bf 8487 5f3f
00000110: ecd6 c132 71c4 cdbe 42c6 a6be 0d3e 0b3b
00000120: 149b 30bf 4a9e b5bf d68e e4be f039 303b
00000130: 72b9 043f a9c6 013f 3232 3bbf bd93 653f
00000140: 504d aebe 2f4f a73c 12cd 0fbf 28a7 5abd
00000150: b737 aa34 cf16 e2be 38f0 60bf 6272 b03b
00000160: d9d3 93bd 676d 7d3e 2294 a4be 5179 baba
00000170: 7b98 f9bd 33e9 d03e dabf edbe 3650 663f
00000180: c142 1fbf f959 183f 741d 5dbd 7ea8 c3be
00000190: 90be aeb1 65d4 513d ee27 81bf a7d7 efb6
000001a0: ccb2 423f 1444 493f c5d5 743e 5c77 ddbb
000001b0: 662b 1abf a81b b0bd 87fa cabe 8cd6 343f
0.2063836 0.55742776 -0.5639566 0.4987344 -6.409369e-09 -0.7053749 -0.36711594 -4.225159e-09
-0.19095616 -1.0307802 -0.10069512 0.003229073 -0.29098016 0.42448202 0.71891826 -1.5832995
1.066433 -0.26886967 -1.1711608 0.98278165 -2.9252664e-08 -0.77103007 -0.7095063 5.8066325e-06
-1.1512672 -1.4069004 -0.4550652 0.0098728165 0.9334303 0.539538 1.120462 -1.2509369
-0.27830464 -0.6640123 0.52943987 -0.70815086 -5.55856e-05 0.67923313 0.72016704 -0.0020069603
0.66442955 0.716217 0.70833564 -0.006000703 0.056234386 -0.80816805 -0.5995705 0.79779106
-0.40298653 0.79451644 0.43520376 -0.7588583 1.9906567e-08 -0.19752231 0.7112711 -7.5863994e-05
1.0066223 0.63991874 0.6488803 -0.00690466 -0.37527674 0.018470282 -0.51324517 -0.74794704
0.12128127 -0.7557221 -0.52385205 0.87316155 2.2565892e-08 -0.40188935 -0.32573134 0.0021246702
-0.6898663 -1.4188931 -0.44640225 0.0026890002 0.5184547 0.50693756 -0.73123467 0.89678556
-0.3404336 0.0204235 -0.5617229 -0.05338207 3.1705505e-07 -0.44158027 -0.87866545 0.0053847292
-0.07218141 0.24748765 -0.32144266 -0.0014226829 -0.121872865 0.40802917 -0.46435434 0.8996614
-0.62211233 0.5951229 -0.053983167 -0.38214487 -5.085731e-09 0.051227946 -1.009031 -7.1478603e-06
0.7605407 0.78619504 0.23909672 -0.0067586135 -0.6022247 -0.08599025 -0.39644262 0.7063987

ffn.0.bias f4 [7]
00000000: 750b cdbd 6896 f03d 66b3 f63d d6cb eabd
00000010: 28ef a83d 39cc d5bc dadc 263e
-0.10011951 0.11747438 0.12045936 -0.1146466 0.082487404 -0.026098358 0.16295186
