checkpoints/citeseer/0.7/GCN_2l/seed/0/GCN_2l_best.ckpt (torch, 241067 bytes, 6 tensors)

conv1.weight f4 [3703, 16]
0.010102726 -0.05929575 -0.062742904 0.015075921 0.028704492 0.030912338 -0.01855397 0.0511866
0.0071981037 0.005853517 0.017734565 -0.063639954 0.050651535 0.0049293716 0.0253117 0.011354157
-0.031167753 -0.072141066 0.049633857 0.0028964814 0.13153455 0.073347814 -0.14197777 0.0036055264
0.08427619 -0.07298007 0.0028426962 -0.033440035 0.029206727 0.07229203 -0.0007171621 0.017079005
0.006636562 0.018153355 -0.0019997458 0.000530096 -0.02253702 -0.01522171 0.023174826 0.002451057
-0.010857689 0.012093373 0.0068475166 0.010989475 0.0030910878 -0.0053737364 -0.0012457713 -0.0022176162
0.00018784475 0.010393489 0.016997846 -0.000119696604 -0.0018990224 0.028160421 0.025092047 -0.055046614
0.00056529266 0.011622181 -0.029651087 0.032877803 -0.0045815445 -0.023705622 0.005583738 0.029256223
-0.00064536266 -0.02378035 0.010787681 0.005643176 0.019171609 0.022666687 -0.025028722 -0.020977905
0.020076351 -0.014507633 -0.017756032 0.0030730087 -0.0047875387 0.0016344998 0.0017183798 0.027101668
-0.0067547644 -0.01908551 0.013302087 0.011785652 0.03138032 0.0036612607 -0.0081057 -0.0017748286
0.028625371 -0.033173792 0.019952253 -0.021883586 0.029687751 0.009971568 -0.0127462 -0.030085394
-0.012860968 -0.043849006 0.015918838 0.019519394 0.04501785 -0.010698853 -0.039008442 0.022014193
0.04818005 -0.060910515 0.04145367 -0.046453077 0.0409797 0.027489938 -0.027055934 -0.06927897
0.053304683 0.0015857902 -0.04693848 0.04211114 -0.06807049 -0.015333445 0.079096474 0.014412609
-3.2988493e-05 0.008880925 0.022393066 -0.008506861 0.06280898 -0.03806793 -0.009461269 -0.011876335
0.0021807577 0.003759681 -0.0034437252 -6.389547e-05 -0.0052627833 -0.0015058931 0.006157651 0.0011225457
-0.0039437753 0.00416297 0.00032743532 0.0012117729 0.0010168976 -0.0026918298 0.00089721533 0.0015712566
0.038518503 0.06483263 -0.075935304 0.006415999 -0.09796718 -0.05064944 0.103677705 0.09149081
-0.06463576 0.06945234 0.05400375 -0.019404462 0.028112665 -0.013337321 0.014089855 -0.01584633
-0.0025304167 0.010288771 0.018344635 -0.0029213973 -0.003220591 -0.004142548 0.001815513 -0.019864047
0.0013813598 -0.0008744912 -0.0074228155 0.020843651 -0.013951707 -0.001388448 -0.006602807 0.0029138522
0.09122738 -0.032984324 -0.13615508 0.057800822 -0.08472848 0.08535393 0.12615019 0.006136607
-0.022280278 0.044980213 -0.03157404 -0.04430278 0.12335814 -0.08316026 0.054911096 0.08820858
-0.04846868 0.0012710149 0.13567472 -0.022057405 0.047158927 -0.0139983455 -0.11576395 -0.06131406
0.047817502 -0.044511702 -0.02363848 0.08015943 -0.12189102 0.060193073 -0.031195963 -0.0009568756
0.01041257 -0.07282106 0.023047853 0.046828292 0.05242607 0.078288846 -0.019953178 -0.07361167
0.07694469 -0.06755097 -0.02606708 -0.008511513 0.056549843 -0.019134361 -0.007504298 0.012755372
-0.015676536 0.039311145 -0.014602799 -0.02579996 0.007759089 0.0048975507 0.0339335 0.004413647
-0.033692643 0.03071143 0.004537303 -0.005129523 0.005453625 -0.007789065 0.017499378 -0.0067084325
0.010478988 -0.022354323 -0.00302538 0.014000167 0.002181577 -0.015718315 -0.03730133 0.037629724
0.0182318 -0.014451386 0.017362727 -0.01832472 0.014242876 0.024498317 -0.004704883 0.0048360163
00000000: e785 253c 1ae0 72bd 5a7f 80bd ff00 773c
00000010: af25 eb3c df3b fd3c 7ffe 97bc 0aa9 513d
00000020: 12de eb3b dcce bf3b 1448 913c aa55 82bd
00000030: fc77 4f3d 9186 a13b 7b5a cf3c c906 3a3c
00000040: 8453 ffbc b2be 93bd df4c 4b3d e5d2 3d3b
00000050: feb0 063e 6137 963d 9f62 11be b24a 6c3b
00000060: ff98 ac3d 9376 95bd 874c 3a3b 6bf8 08bd
00000070: f242 ef3c d80d 943d efff 3bba 45e9 8b3c
00000080: 8477 d93b 58b6 943c 2b0e 03bb 24f6 0a3a
00000090: 8e9f b8bc 7b64 79bc 22d9 bd3c eaa1 203b
000000a0: 73e4 31bc 4823 463c 2261 e03b 330d 343c
000000b0: d993 4a3b 2b16 b0bb 2649 a3ba 6d55 11bb
000000c0: 31f8 4439 7449 2a3c 113f 8b3c a005 fbb8
000000d0: 9ee8 f8ba afb0 e63c d68d cd3c 8f78 61bd
000000e0: 2630 143a f66a 3e3c d6e6 f2bc e0aa 063d
000000f0: c820 96bb 4b32 c2bc caf7 b63b bfaa ef3c
00000100: 8e2d 29ba 02cf c2bc d0be 303c 64ea b83b
00000110: c70d 9d3c 7daf b93c 0909 cdbc dbd9 abbc
00000120: 2977 a43c 6cb1 6dbc 1975 91bc 8864 493b
00000130: c9e0 9cbb b63c d63a 423b e13a 5104 de3c
00000140: 1257 ddbb 3759 9cbc fff0 593c 9b18 413c
00000150: a788 003d c3f1 6f3b c5cd 04bc 5ea1 e8ba
00000160: c17f ea3c 3ee1 07bd e872 a33c 3545 b3bc
00000170: ba33 f33c ca5f 233c 70d5 50bc a575 f6bc
00000180: cfb6 52bc 049b 33bd 3968 823c 23e7 9f3c
00000190: a364 383d 3e4a 2fbc 51c7 1fbd 1c57 b43c
000001a0: 7258 453d 4e7d 79bd 53cb 293d 9545 3ebd
000001b0: 54da 273d 9432 e13c 68a4 ddbc 22e2 8dbd
000001c0: 0356 5a3d 4ada cf3a 9042 40bd bb7c 2c3d
000001d0: 8b68 8bbd 2139 7bbc 55fd a13d dd22 6c3c
000001e0: 205d 0ab8 4d81 113c aa71 b73c 5c60 0bbc
000001f0: ffa1 803d 1eed 1bbd 7003 1bbc f694 42bc
00000200: 0beb 0e3b fb64 763b 1fb0 61bb 9fff 85b8
00000210: 6d73 acbb 6361 c5ba 1fc6 c93b 6222 933a
00000220: c93a 81bb 8669 883b a0ab ab39 5ad4 9e3a
00000230: 6c49 853a 6969 30bb 1a33 6b3a 9ff2 cd3a
00000240: 94c5 1d3d f8c6 843d f883 9bbd 4d3d d23b
00000250: 04a3 c8bd ca75 4fbd fa54 d43d 895f bb3d
00000260: c15f 84bd 073d 8e3d 0933 5d3d 1bf6 9ebc
00000270: 884c e63c c784 5abc 23d9 663c 2ad0 81bc
00000280: 59d5 25bb 3c92 283c 7d47 963c ea74 3fbb
00000290: 8d10 53bb 36be 87bb 82f6 ed3a edb9 a2bc
000002a0: be0e b53a 1c3e 65ba 173b f3bb 4ec0 aa3c
000002b0: b395 64bc 96fc b5ba 5c5c d8bb 54f6 3e3b
000002c0: 6cd5 ba3d 921a 07bd 3d6c 0bbe 8ec0 6c3d
000002d0: 2086 adbd 0bce ae3d 842d 013e 9715 c93b
000002e0: 2185 b6bc 2c3d 383d c853 01bd d576 35bd
000002f0: 31a3 fc3d ed4f aabd 75ea 603d b3a6 b43d
00000300: 1887 46bd 2f98 a63a 50ee 0a3e bbb1 b4bc
00000310: b829 413d 5159 65bc a615 edbd 7424 7bbd
00000320: 49dc 433d e751 36bd 7ca5 c1bc a12a a43d
00000330: 00a2 f9bd 038d 763d ad8e ffbc d6d6 7aba
00000340: 7c99 2a3c 3523 95bd dace bc3c 06cf 3f3d
00000350: b8bc 563d e755 a03d d974 a3bc b7c1 96bd
00000360: 2d95 9d3d 2a58 8abd a18a d5bc df73 0bbc
00000370: cfa0 673d aabf 9cbc 9de6 f5bb e8fb 503c
00000380: 146c 80bc b904 213d 9440 6fbc 705a d3bc
00000390: f53f fe3b a27b a03b dbfd 0a3d 5ba0 903b
000003a0: 4c01 0abd 8996 fb3c a8ad 943b 8f15 a8bb
000003b0: 53b4 b23b 6a3b ffbb db5a 8f3c 69d2 dbbb
000003c0: 10b0 2b3c 6a20 b7bc 7445 46bb f560 653c
000003d0: caf8 0e3b b2c3 80bc 48c9 18bd a021 1a3d
000003e0: db5a 953c 82c5 6cbc 473c 8e3c b91d 96bc
000003f0: f45a 693c b2b0 c83c 6b2b 9abb 7277 9e3b

conv1.bias f4 [16]
0.20178954 0.18288213 0.101238444 0.15741481 0.26028794 0.16309606 0.12394855 0.47059515
0.1364697 0.25114033 0.22927345 0.13927667 0.12618093 0.3090928 0.29733044 0.18216437
00000000: eba1 4e3e 7445 3b3e 1a56 cf3d 5931 213e
00000010: 7644 853e a702 273e bdd8 fd3d d9f1 f03e
00000020: b7be 0b3e 7795 803e a9c6 6a3e 8b9e 0e3e
00000030: 9335 013e 6941 9e3e b23b 983e 4c89 3a3e

convs.0.weight f4 [16, 16]
0.5310754 -0.009109148 0.7388865 -0.39527765 -0.112774305 0.29479977 0.4317259 -0.22311714
0.69666934 -0.63627046 0.529918 -0.35681847 0.016410762 0.41297886 0.05620039 0.86463183
-1.0391151 0.60477495 -0.66797656 -0.41481248 -0.3858549 -0.9500807 0.21852598 0.5742358
-0.3509651 0.92185426 -0.14458483 0.45662808 -0.016994292 0.7789303 0.6253435 -0.22670971
-0.07826534 -0.60950196 -0.71968186 0.21404779 0.8422568 -0.54580206 -0.5492908 0.78771406
-0.44200724 0.23322442 0.46427098 0.56604403 0.8068909 0.47351897 -0.69341457 -0.57015175
0.40961763 0.08086001 0.7039794 0.14416732 0.42945737 0.17334187 0.036422227 -0.4289822
0.83415866 -0.5202418 0.48164174 -0.60083544 0.6704135 0.08460341 -0.44523573 0.6193749
0.4487659 -0.4369598 -0.017654087 0.66270274 0.70303833 0.5209591 0.36596957 0.199692
-0.52937883 0.75634545 -0.602159 0.68888426 0.25568986 -0.71917135 0.66257226 -0.6647253
0.6671347 -0.5446704 -0.08261984 0.3536019 -0.0960109 0.25049418 -0.30859655 -0.23260178
0.5847522 0.14085212 -0.09052038 -0.26600975 -0.56666327 -0.96497136 0.9346052 0.16788492
-0.8159163 0.4242434 0.75265485 -0.4307149 -0.58806473 -1.0765753 0.2615269 -0.8234501
1.0227584 0.779319 0.3254608 0.25419778 -0.3668239 0.61035985 0.47374186 0.80085444
0.106630936 1.0246211 0.6983001 0.5248129 -0.19027561 0.78265643 0.89544374 -0.15910505
-0.6727733 -0.21854672 -0.6048555 -0.48920545 -0.11310537 0.61470336 -0.023187662 0.017058333
0.26049408 -0.63791776 0.46004114 0.41823238 0.8014998 0.57436526 -0.13410664 -0.068497315
0.56976944 -0.63589907 0.3849122 0.20375414 0.7860533 -0.0804137 -0.6771658 0.02099073
0.0253334 0.73617923 -0.57163477 -0.3586248 -0.9553439 -0.16847722 0.31745014 0.5105659
-0.042829335 0.34965685 -0.16279617 -0.011394608 -0.6865829 0.27719066 0.8771027 0.23487568
-0.79544306 0.7319123 0.7571989 0.28504655 0.4297799 0.21399528 0.5522204 -0.2641408
-0.025119977 0.041436452 -0.33384696 0.54034877 0.6410599 0.65069133 -0.31029904 -0.13148616
0.4879001 -0.05276127 -0.5172484 -0.71361905 -0.13105118 -0.8404219 -0.69608563 0.64872754
0.31934747 0.0084847575 0.74989986 0.15377927 0.2711115 0.5712511 -0.08166812 -0.40753868
-0.5586046 0.1624979 0.94922274 0.21263608 0.32789457 -0.09109662 0.7610906 -1.3347363
1.0575802 0.015400651 -0.5960134 -0.12572297 0.31666636 -0.62588596 0.18253453 0.8695556
0.16333267 0.4133899 -0.16764504 0.41667503 0.5015523 0.70680994 0.32606468 0.574896
-0.6475259 0.23325193 0.23032267 0.1951555 0.5270848 0.24278809 -0.32067153 -0.49941716
0.5232141 0.33654305 -0.34379238 0.42150894 -0.5287343 0.41647068 0.08601093 0.32188758
-0.20376836 0.045090802 -0.13372004 0.44254377 -0.6768225 -0.10549229 0.7333528 0.6838356
0.9081792 -0.11725839 -0.27924225 -0.42075244 -0.72681624 0.3150741 -0.6187465 0.75545436
0.07675693 -0.8415867 0.6960541 -0.86111206 -0.8254458 -0.51742196 1.1157551 0.41522917
00000000: 8ff4 073f 893e 15bc aa27 3d3f d561 cabe
00000010: 37f6 e6bd ffef 963e 2d0b dd3e d278 64be
00000020: ec58 323f 9fe2 22bf b5a8 073f e9b0 b6be
00000030: dd6f 863c f771 d33e 6132 663d 8358 5d3f
00000040: b901 85bf 88d2 1a3f 8300 2bbf 4d62 d4be
00000050: c68e c5be 7d38 73bf 46c5 5f3e 1e01 133f
00000060: b3b1 b3be a4fe 6b3f 0c0e 14be 28cb e93e
00000070: 9d37 8bbc fa67 473f 8316 203f 9726 68be
00000080: 9449 a0bd 5208 1cbf 123d 38bf 582f 5b3e
00000090: 249e 573f afb9 0bbf 529e 0cbf a1a7 493f
000000a0: c64e e2be 62d2 6e3e edb4 ed3e 43e8 103f
000000b0: 6790 4e3f 1471 f23e 9e83 31bf 77f5 11bf
000000c0: 67b9 d13e ef99 a53d fe37 343f 99a0 133e
000000d0: d6e1 db3e 8880 313e 792f 153d 8ea3 dbbe
000000e0: 6c8b 553f 912e 05bf bf99 f63e 5ad0 19bf
000000f0: 38a0 2b3f 8d44 ad3d f0f5 e3be 5a8f 1e3f
00000100: a5c4 e53e 32b9 dfbe 4e9f 90bc e3a6 293f
00000110: 52fa 333f 935d 053f 5d60 bb3e 0f7c 4c3e
00000120: 5f85 07bf db9f 413f 1827 1abf b85a 303f
00000130: c8e9 823e 9d1b 38bf 569e 293f 702b 2abf
00000140: 57c9 2a3f 856f 0bbf 9734 a9bd 4f0b b53e
00000150: 5da1 c4bd c640 803e 5e00 9ebe 292f 6ebe
00000160: 52b2 153f 8a3b 103e c062 b9bd 6e32 88be
00000170: d810 11bf 5d08 77bf 4942 6f3f 06ea 2b3e
00000180: e4df 50bf 6e36 d93e fdad 403f aa86 dcbe
00000190: 698b 16bf 38cd 89bf dbe6 853e a0cd 52bf
000001a0: bfe9 823f 7381 473f cca2 a63e 3626 823e
000001b0: 58d0 bbbe 8b40 1c3f 4b8e f23e cc04 4d3f
000001c0: 5261 da3d c926 833f ccc3 323f 235a 063f
000001d0: 9cd7 42be 2c5c 483f cd3b 653f 6fec 22be
000001e0: df3a 2cbf b6ca 5fbe cfd7 1abf 2379 fabe
000001f0: caa3 e7bd 335d 1d3f 0df4 bdbc ebbd 8b3c
00000200: 7b5f 853e 944e 23bf 838a eb3e 8e22 d63e
00000210: 172f 4d3f 9a09 133f 4053 09be 5248 8cbd
00000220: 69dc 113f 48ca 22bf 3613 c53e eda4 503e
00000230: ca3a 493f f0af a4bd bd5a 2dbf c0f4 ab3c
00000240: fe87 cf3c 3e76 3c3f a856 12bf ab9d b7be
00000250: 6b91 74bf 4b85 2cbe d388 a23e 72b4 023f
00000260: d06d 2fbd 3906 b33e 0ab4 26be 73b0 3abc
00000270: e6c3 2fbf efeb 8d3e cd89 603f 4083 703e
00000280: 28a2 4bbf 9b5e 3b3f cad7 413f 9ff1 913e
00000290: 1c0c dc3e 9421 5b3e 515e 0d3f 773d 87be
000002a0: 69c8 cdbc 45b9 293d fded aabe 4c54 0a3f
000002b0: 801c 243f b593 263f 84df 9ebe 4fa4 06be
000002c0: 0bce f93e 341c 58bd 646a 04bf bdaf 36bf
000002d0: 4832 06be e425 57bf ab32 32bf 0213 263f
000002e0: 8381 a33e a703 0b3c 70f9 3f3f 5078 1d3e
000002f0: 20cf 8a3e 833d 123f 9e41 a7bd e9a8 d0be
00000300: b600 0fbf d965 263e 4300 733f 46bd 593e
00000310: cce1 a73e dd90 babd d5d6 423f a4d8 aabf
00000320: ca5e 873f 0353 7c3c 5694 18bf 86bd 00be
00000330: 1822 a23e 103a 20bf 55ea 3a3e 329b 5e3f
00000340: ae40 273e d7a7 d33e 24ab 2bbe 6e56 d53e
00000350: bb65 003f 7ff1 343f f3f1 a63e 622c 133f
00000360: 42c4 25bf 98d9 6e3e b5d9 6b3e d8d6 473e
00000370: 08ef 063f 719d 783e 0f2f a4be 9bb3 ffbe
00000380: 5cf1 053f 5f4f ac3e 8e05 b0be 05d0 d73e
00000390: 225b 07bf a53b d53e 8026 b03d 73ce a43e
000003a0: a7a8 50be 22b1 383d e8ed 08be 1995 e23e
000003b0: 3d44 2dbf 570c d8bd 02bd 3b3f da0f 2f3f
000003c0: 6f7e 683f 2b25 f0bd d7f8 8ebe dd6c d7be
000003d0: a110 3abf 6451 a13e 2c66 1ebf 7565 413f
000003e0: bd32 9d3d 3a72 57bf 9a30 323f d771 5cbf
000003f0: 6a50 53bf c475 04bf 10d1 8e3f eb98 d43e

convs.0.bias f4 [16]
0.22533445 0.046964366 -0.21505253 0.02037641 0.1312952 0.22332619 0.060371216 0.19799069
-0.18806876 0.004360642 0.1898092 0.13302001 0.19082177 0.18411864 0.098576315 -0.222574
00000000: 13be 663e b55d 403d bb36 5cbe 6eec a63c
00000010: 4072 063e 9faf 643e cf47 773d 12be 4a3e
00000020: 1995 40be b7e3 8e3b 585d 423e 6636 083e
00000030: c866 433e 9989 3c3e 61e2 c93d 70ea 63be

ffn.0.weight f4 [6, 16]
0.5727804 0.3790131 -0.37862006 0.08341276 -1.2734245 0.7293441 0.24491313 1.0531561
-0.76099646 -0.82663476 -0.5735967 -0.87762177 -0.6468241 -0.046945855 0.39913997 -0.17811276
0.6684172 -0.69051147 -0.25662 -0.52088046 -0.72787595 -0.44410935 -0.64332163 -0.2102341
0.9796934 0.10528549 0.50162226 -0.6674018 -0.47327304 -0.6901533 0.7567795 0.71870005
0.18231536 -0.40559223 -0.7053494 -0.7399281 0.69872373 -0.65683454 -0.4996514 1.0549281
-0.43086013 -0.69053024 0.4468566 0.28166786 0.4418447 0.4749456 -1.0107818 -0.8761194
-0.68452066 0.6992065 0.3913617 -0.50236374 -0.93551344 -0.5835902 0.5623102 -1.2922264
0.49479827 -0.55693936 -0.15421964 -0.6224946 -0.121874385 0.6420947 -0.34087726 0.80023164
0.011320215 -0.53211164 0.276863 0.61723983 1.2477204 0.5577501 0.41692063 -1.2794409
-0.08380342 -0.47459126 -0.55328816 -0.03839079 0.46647823 -0.32116354 -0.89725727 -0.25742516
-0.6635493 0.41228703 -0.51252556 0.3073565 -0.67485785 -0.8256468 0.2327981 0.13320139
-0.45752385 0.7495266 -0.6723059 0.64384687 -0.2849532 0.27856547 0.46406975 -0.31313
00000000: bca1 123f 010e c23e 7dda c1be 4fd4 aa3d
00000010: 93ff a2bf 4cb6 3a3f 82ca 7a3e d2cd 863f
00000020: aad0 42bf 569e 53bf 3cd7 12bf d2ab 60bf
00000030: 4496 25bf 4c4a 40bd 135c cc3e 3163 36be
00000040: 641d 2b3f 5cc5 30bf b263 83be 6c58 05bf
00000050: 1456 3abf 4d62 e3be bab0 24bf 9c47 57be
00000060: 30cd 7a3f eb9f d73d 516a 003f d8da 2abf
00000070: d850 f2be e3ad 30bf 4dbc 413f bafc 373f
00000080: e1b0 3a3e c9a9 cfbe c791 34bf ee6b 3dbf
00000090: 8fdf 323f 4f26 28bf 4fd2 ffbe e207 873f
000000a0: b399 dcbe 97c6 30bf 63ca e43e c536 903e
000000b0: 7839 e23e 122c f33e 4c61 81bf 5c49 60bf
000000c0: bf3c 2fbf 32ff 323f 9060 c83e e99a 00bf
000000d0: cf7d 6fbf 2b66 15bf 90f3 0f3f ad67 a5bf
000000e0: 3356 fd3e 9493 0ebf c1eb 1dbe ce5b 1fbf
000000f0: 4799 f9bd 5160 243f 7787 aebe fbdb 4c3f
00000100: 6c78 393c 7838 08bf fdc0 8d3e 6e03 1e3f
00000110: 4db5 9f3f b6c8 0e3f 9f76 d53e b8c4 a3bf
00000120: 21a1 abbd a0fd f2be 4ba4 0dbf a93f 1dbd
00000130: 3cd6 ee3e 8c6f a4be a7b2 65bf 3bcd 83be
00000140: 5ede 29bf 4917 d33e e034 03bf d55d 9d3e
00000150: 7cc3 2cbf 975d 53bf a062 6e3e f265 083e
00000160: 9140 eabe fae0 3f3f 3d1c 2cbf 26d3 243f
00000170: 63e5 91be 22a0 8e3e 8d9a ed3e 9352 a0be

ffn.0.bias f4 [6]
-0.11443974 -0.11322968 0.18336846 -0.30991554 0.045747787 -0.16628458
00000000: 625f eabd f6e4 e7bd f1c4 3b3e 40ad 9ebe
00000010: 0862 3b3d 8146 2abe
