attack_checkpoints/cora/60/GCN_2l/GCN_2l_best.ckpt (torch, 95851 bytes, 6 tensors)

conv1.weight f4 [1433, 16]
000000 ee 5c d6 ba c1 e8 71 38 2f f4 38 3e 18 c0 d8 36
       -0.00163546 5.7675647e-05 0.18061899 6.4596643e-06
000010 a1 0e d5 33 cb 28 50 3d 27 53 42 39 78 a3 ae 3d
       9.9212464e-08 0.050820153 0.00018532258 0.08527273
000020 26 97 1e bd 02 9b e3 36 12 4f 7c bd 7a 0c 04 bd
       -0.038718365 6.7831725e-06 -0.061598845 -0.03223846
000030 57 e9 b0 35 d3 a9 d4 bc 83 71 4d 3e 9f c4 46 b3
       1.3180933e-06 -0.025959885 0.20062833 -4.6279293e-08
000040 61 2e c3 31 38 6f 26 b8 65 d4 94 bd 65 49 26 b8
       5.6805196e-09 -3.9681065e-05 -0.072670735 -3.9645838e-05
000050 51 88 da b1 7c 5c b5 3d e3 54 ed ba b5 bb 76 bd
       -6.3601324e-09 0.088555306 -0.0018106963 -0.060237605
000060 a0 14 ba 3c 5b 8d 42 31 41 75 33 3d 2d 3b 91 bd
       0.022714913 2.8311067e-09 0.043812994 -0.07091365
000070 8f 89 10 b2 ee 7d f5 3e ea 84 bc 3c 46 c1 16 b1
       -8.41318e-09 0.4794764 0.023012597 -2.1937736e-09
000080 be 99 8c b9 d5 ce 20 b9 b6 db a2 3d b8 07 a6 36
       -0.00026817428 -0.0001533584 0.07952063 4.948084e-06
000090 9a 0c 6a 30 24 c7 da 3c db c7 98 ba 72 e9 47 bd
       8.514661e-10 0.026706286 -0.0011656241 -0.048806615
0000a0 4a 47 af 3e f0 90 b6 b1 90 aa 2f 3d 90 d6 b6 3e
       0.34234077 -5.3133746e-09 0.04288727 0.35710573
0000b0 14 32 9c 32 16 54 a5 3e 01 15 6c 3e 72 5d 45 b3
       1.8183563e-08 0.32290715 0.23054887 -4.5952625e-08
0000c0 87 3b ba bc 66 2c 30 bb 2a e6 f8 3d 37 77 41 ba
       -0.022733463 -0.0026881932 0.12153275 -0.000738013
0000d0 1f 2d 4d b8 1c f5 16 bd 95 dd 7d ba ea 00 85 3e
       -4.891783e-05 -0.03685485 -0.00096842024 0.2597726
0000e0 b7 25 d4 bd e0 20 cc bb 15 1b f9 3c 8a 56 bb bd
       -0.10358756 -0.006229505 0.030408422 -0.091473654
0000f0 9d b3 c6 b9 3c 2d 99 bb 47 aa b3 bd d1 d8 37 ba
       -0.00037899325 -0.004674582 -0.08772712 -0.0007013204
000100 b1 41 0c bd b7 08 31 bb 68 68 9c 3e c9 99 12 bb
       -0.034242336 -0.002701325 0.30548406 -0.0022369495
000110 88 5f b6 b8 55 1a 6c 3e cd 20 47 ba 97 de 0c be
       -8.69623e-05 0.2305692 -0.0007596135 -0.13756786
000120 1d 4c 23 be 0f 4a 50 bb 5c a2 33 be d5 32 8c bd
       -0.15947004 -0.0031782424 -0.17542404 -0.06845633
000130 6c b9 6e bb 0e 18 8a bd cc 21 33 3f 46 c9 fd ba
       -0.0036426438 -0.06742869 0.69973445 -0.0019362352
000140 c0 45 7b b0 e1 1f 3d 36 a3 d2 14 bc b0 71 d7 b7
       -9.141239e-10 2.818175e-06 -0.009083423 -2.5682937e-05
000150 54 bb 94 30 6d 37 98 bc 18 a0 b1 39 6a 1d e4 3b
       1.0821659e-09 -0.018581117 0.0003387935 0.0069615142
000160 3c 13 e4 3c 18 f7 0b b2 29 86 e2 3b 3c 4e 0d 3d
       0.027841203 -8.1470475e-09 0.006912966 0.03449844
000170 8d da 8c b1 ca 73 7c bd 06 0b e1 bc e9 87 95 b1
       -4.0993826e-09 -0.061633863 -0.027471077 -4.351922e-09
000180 b8 29 e2 b1 22 ca be b7 79 1d 75 ba ee 5d a0 b7
       -6.5822086e-09 -2.274389e-05 -0.00093504 -1.9117226e-05
000190 78 a6 99 31 74 cf f3 bd 0f 58 a5 ba 24 74 50 3d
       4.4718114e-09 -0.11904803 -0.0012614744 0.05089201
0001a0 ef 5c dc 3d 7f 03 89 31 96 d1 17 3e f2 67 0d 3e
       0.10759913 3.9876222e-09 0.14826044 0.13809183
0001b0 b2 1e 1a 31 4d 76 8e 3d b3 ca 2d be b2 6d 23 31
       2.2427398e-09 0.06956158 -0.16971855 2.3781976e-09
0001c0 01 ec b3 b1 68 50 b4 b5 3b e8 7c bc e9 46 7c 37
       -5.236416e-09 -1.3434446e-06 -0.015436227 1.50368805e-05
0001d0 5f f2 a5 b1 79 97 e4 3a fd b2 32 ba d1 f7 ee bc
       -4.8296864e-09 0.0017440162 -0.00068168325 -0.029170902
0001e0 86 3e c4 3a 5e e7 46 b0 8a d6 d1 3c f9 d7 12 bd
       0.0014972247 -7.2360773e-10 0.025614996 -0.0358505
0001f0 19 5e ad 30 a5 ed 8e 3e 0d 7d 06 bb ad d0 83 b2
       1.2614151e-09 0.27915683 -0.0020521313 -1.5345302e-08
000200 28 b5 07 b3 0b 6f 23 39 1c 25 b5 3d ee 9b a9 b6
       -3.1596898e-08 0.00015586258 0.08844969 -5.054745e-06
000210 df 2e 63 31 41 bd 89 3d 25 de 13 39 5d ac 9b bc
       3.305949e-09 0.067255504 0.00014101768 -0.019003088
000220 14 fb 3b 3d bf e7 d7 b0 51 df e8 bc 04 db be 3d
       0.045893744 -1.5709175e-09 -0.028426798 0.09319118
000230 20 4c 38 b2 2f 0b ad 3d da f7 0a 3e b8 3a 9b b2
       -1.0727518e-08 0.08449399 0.1357111 -1.8071077e-08
000240 ea c8 90 b1 5d 3a ec 35 23 c5 3b bc 1a 41 04 b7
       -4.213793e-09 1.7600356e-06 -0.011460575 -7.882971e-06
000250 1c 7b 71 2f 95 67 c2 bc f5 b8 10 39 de 10 d6 ba
       2.196256e-10 -0.023731032 0.00013801812 -0.0016331931
000260 59 30 79 3c 63 7d 39 b0 0c ff 0e 3d 95 44 8b 3c
       0.015209281 -6.7480793e-10 0.0349112 0.017000476
000270 d9 3a 19 31 c8 7f b2 3d 28 49 25 bd d2 5d 84 31
       2.2297881e-09 0.087157786 -0.04035297 3.8523718e-09
000280 db 55 95 b1 e3 8d 14 37 0b 57 29 bd 40 89 af b6
       -4.3462314e-09 8.854523e-06 -0.041342776 -5.2313844e-06
000290 4c f5 92 31 92 84 a4 bd e1 42 3e 3a e9 85 03 3d
       4.2770463e-09 -0.08033098 0.00072578905 0.03211013
0002a0 f2 df da 3d 88 cf 85 31 f6 b5 13 3d c7 c8 03 3e
       0.106872454 3.894403e-09 0.036062203 0.12869559
0002b0 e4 fa dd 30 ba e5 8a bd a5 13 f2 bd 8f 52 f9 31
       1.6151174e-09 -0.06782098 -0.11820153 7.2562396e-09
0002c0 fa 00 a4 b1 8d 6b ca 35 be 0f 97 bc 04 90 cb 37
       -4.773139e-09 1.5081474e-06 -0.018440124 2.4266548e-05
0002d0 ce ae a6 2f f4 7f 86 bd 35 b3 df b9 7e a3 8d 3c
       3.031943e-10 -0.06567374 -0.00042667394 0.017289873
0002e0 40 9b a4 3d 74 d0 a9 30 73 45 34 3d 83 62 91 3d
       0.08037424 1.2355614e-09 0.044011544 0.07098868
0002f0 9b 94 3a 31 cb ee 66 3c f5 60 a4 bd 13 2a 26 32
       2.7151035e-09 0.014095019 -0.080263056 9.672038e-09
000300 de 44 d6 3a f4 24 1b ba da 21 4b bb 5d 26 ac 38
       0.0016347428 -0.0005918287 -0.003099552 8.208745e-05
000310 cd 16 ad 32 b4 2d 74 3b bb f9 73 ba f7 ad e5 3d
       2.015022e-08 0.0037258686 -0.0009306927 0.11214822
000320 88 f7 0a 3d 2e eb 62 32 7c 13 0b 3c 27 79 87 3d
       0.03392747 1.3208405e-08 0.008488532 0.06614905
000330 8c ef aa b4 ad 46 d6 bd eb 7a 6f bd 84 07 d7 b2
       -3.183926e-07 -0.10462699 -0.058466833 -2.5032712e-08
000340 bc 68 8d 31 21 90 bc b8 74 f1 db bd 84 f3 a2 b6
       4.115547e-09 -8.991385e-05 -0.10739413 -4.856325e-06
000350 7c 26 18 31 2d c3 f8 bd 87 02 b4 ba 36 d2 2d 3d
       2.2140787e-09 -0.12146602 -0.0013733663 0.0424368
000360 87 a1 b0 3d 12 90 9c 31 71 f9 83 3d 58 e5 c4 3d
       0.08624559 4.5565764e-09 0.064440615 0.09614056
000370 02 a2 8c 31 1c 79 08 3e be 20 82 be 3e 4d c0 b1
       4.0929544e-09 0.1332745 -0.25415605 -5.596717e-09
000380 d8 44 14 32 f0 8d 53 34 60 90 12 3c 6c 5d 79 36
       8.630387e-09 1.9702543e-07 0.0089455545 3.715827e-06
000390 70 0a de b1 f6 94 59 bc 3c 65 34 ba 61 08 63 3c
       -6.462237e-09 -0.013280144 -0.000688154 0.013856978
0003a0 d9 39 61 3d ce 11 3e 30 92 4c df 3c 5e f4 54 3d
       0.05498681 6.91469e-10 0.027258191 0.05199086
0003b0 10 6d 83 b1 27 f1 79 3b aa e0 69 3a 73 61 76 32
       -3.8250008e-09 0.0038138123 0.0008921722 1.4341242e-08
0003c0 42 35 d7 b1 77 1d 64 35 1e 2e 2c bc 10 3b 41 37
       -6.2633783e-09 8.4979496e-07 -0.010509042 1.1517448e-05
0003d0 13 7e fd b0 bc 90 5d 3d 19 c3 60 b9 58 e3 6b bc
       -1.8444005e-09 0.054093108 -0.00021434984 -0.014397465
0003e0 47 02 39 bc ab a4 df 31 5b ac ae bc 05 42 3c 3c
       -0.011292047 6.5088748e-09 -0.02132242 0.01149035
0003f0 d1 30 52 31 0e 8b 0e bd a8 ad 7c 3d de 48 91 31
       3.058677e-09 -0.03480058 0.06168905 4.2283395e-09

conv1.bias f4 [16]
000000 1c da 6f bc b1 5a d0 bc 02 e8 01 3f b4 3a 82 bc
       -0.014639404 -0.02543387 0.5074464 -0.015897132
000010 60 31 92 bb 53 91 65 3e bf d5 be 3b 9c 80 ae bc
       -0.0044614524 0.22418718 0.0058238204 -0.02130156
000020 9d ca cd be 95 9a 15 bc aa 77 10 be 0b b1 ec be
       -0.40193644 -0.0091310935 -0.14108148 -0.46228823
000030 14 28 05 bc 51 22 e8 3e 6b 26 23 3f 3c f9 02 bc
       -0.008127231 0.4533868 0.63730496 -0.007993992

convs.0.weight f4 [16, 16]
000000 e5 54 83 3c b8 6d 87 31 29 5f f1 b3 fa 9f b2 36
       0.016031692 3.9414907e-09 -1.12397466e-07 5.323437e-06
000010 35 f7 8d 34 d0 d4 71 b4 cd bc 25 bd e0 10 1d b3
       2.6443163e-07 -2.2522295e-07 -0.040463258 -3.656976e-08
000020 bd 64 dd b2 20 50 fe b2 7e 95 95 3d d1 88 8f 34
       -2.5773597e-08 -2.9605928e-08 0.07303904 2.6735373e-07
000030 02 09 97 35 60 8d 69 b3 3a 50 3c bb b2 57 81 b3
       1.1252998e-06 -5.437812e-08 -0.0028734342 -6.022982e-08
000040 b9 c9 cf 3a 01 e2 4b b9 93 2c d1 38 9f 20 50 b7
       0.0015852965 -0.00019443782 9.974199e-05 -1.2405361e-05
000050 9b 08 08 b3 74 02 8e 39 79 ea 43 ba db 76 86 38
       -3.1672794e-08 0.00027086178 -0.0007473599 6.4117565e-05
000060 0b 54 01 39 04 a5 d1 ba 7a 9f 18 38 4d 9f b7 b9
       0.00012333707 -0.0015994613 3.6388148e-05 -0.00035023168
000070 92 d5 d6 39 ed 6f 62 32 b6 c0 20 bb 04 49 50 b9
       0.00040976383 1.318038e-08 -0.0024528927 -0.00019863626
000080 4f e5 03 3f a8 01 94 bc de 75 c3 bd 3b e8 7c 3e
       0.5152177 -0.018067196 -0.09543966 0.24697964
000090 5d e7 9e bc 64 59 be 3d aa 06 1a be c3 21 5b 3d
       -0.019397432 0.09294394 -0.15041605 0.053498995
0000a0 c3 71 68 3e 8b 75 0f bf c4 63 94 3e 90 bf b0 be
       0.22699647 -0.5603873 0.28982365 -0.3452115
0000b0 cf b4 bf 3d 5c cf 42 b5 b5 24 02 be 33 40 9a 3e
       0.093606584 -7.257238e-07 -0.12709315 0.30127105
0000c0 82 c2 87 3c 28 17 90 bb 12 5b 9c 3c 9f 37 85 3c
       0.01657224 -0.0043972917 0.019086394 0.016261874
0000d0 f9 b9 93 35 70 b9 96 3c 67 fc 70 3c dc 11 57 3c
       1.1006479e-06 0.01839897 0.014708615 0.013126817
0000e0 27 ff 16 3c 30 c2 1b bd de df df 3b da a9 86 3b
       0.0092161065 -0.03802699 0.006832107 0.0041096034
0000f0 ef 47 a1 bb 45 96 e1 32 48 be 82 b8 a5 6d 3d bb
       -0.004921905 2.6261782e-08 -6.234326e-05 -0.0028904465
000100 70 4b b0 32 c2 5d 9e b1 25 ca 3e 33 90 10 fe af
       2.0523402e-08 -4.6090642e-09 4.442167e-08 -4.62141e-10
000110 9e 37 df b1 2a 98 88 33 72 3e 83 31 9e f9 ba 31
       -6.496477e-09 6.360672e-08 3.819701e-09 5.4416907e-09
000120 cf db 1c 33 93 29 ac 31 0a 7c cc 33 35 39 71 b3
       3.6521495e-08 5.0105853e-09 9.522053e-08 -5.6164215e-08
000130 95 55 02 b3 43 59 1a b3 e8 56 9a 32 26 9c 98 b2
       -3.034582e-08 -3.5937102e-08 1.796748e-08 -1.7766137e-08
000140 ee 30 19 bf ac 90 df 3e c4 82 4c 3f ef 50 c6 3e
       -0.59840286 0.43665063 0.7988703 0.38733622
000150 67 1d 2a bb 29 58 8c be a3 e1 43 be e3 79 a4 bd
       -0.0025957467 -0.2741101 -0.19129042 -0.080310605
000160 62 48 08 3f 3e 19 84 3d f7 01 45 3f 41 60 5a be
       0.5323545 0.06450127 0.76956123 -0.2132578
000170 36 9a 06 3f 17 b4 20 32 56 96 1c bc 38 a9 87 3e
       0.5257906 9.354173e-09 -0.009557327 0.2649629
000180 b0 ef b9 ba af 0d f0 bc 94 1e d1 bb 60 9d 4c 3c
       -0.0014185812 -0.0293034 -0.006381819 0.012488693
000190 d0 ce 86 b4 45 bc 22 3b 0d 5d 20 3d 38 47 10 3a
       -2.510992e-07 0.0024831456 0.03915124 0.00055037765
0001a0 c3 f0 71 3d 6f dc be bb 92 61 69 3b 3a 66 56 bb
       0.0590675 -0.0058246176 0.0035611135 -0.003271474
0001b0 61 94 15 bb d9 33 8e 3c 5b 9e 7f 3b bb 23 b8 3b
       -0.0022824036 0.017358707 0.00390043 0.005619494
0001c0 0a 34 f2 3e 3d a3 0f bd da 16 e3 bd a8 1d 53 3b
       0.47305328 -0.035067786 -0.11088343 0.0032213721
0001d0 8b 51 e5 bc a3 aa c4 3e f5 45 6c 3d e4 7e 6d 3e
       -0.027992984 0.38411435 0.057683904 0.23192936
0001e0 9b 7d 55 bd 07 87 0f be 1f 90 3c be cd 8d e8 3b
       -0.05212174 -0.14016353 -0.18414353 0.007096982
0001f0 8e b3 46 be 86 b2 78 33 d2 74 88 3e d5 8b 03 3e
       -0.19404432 5.7904366e-08 0.26651627 0.1284631
000200 2e 4c b3 3d 7a 1c 2c be cb 99 ae 3e ce be 50 be
       0.087547645 -0.16807738 0.3410171 -0.20385286
000210 43 86 8d bb c3 ae ac 3e 23 c7 2d 3f cd 00 11 3f
       -0.0043189838 0.33727083 0.67881984 0.56641847
000220 81 9a 4a be c9 70 46 3f ad fe 07 3e fc 73 3d 3f
       -0.19785501 0.77515846 0.13280745 0.74005103
000230 d8 90 c9 be 81 06 41 3d fb 4a bf 3e a0 e3 b7 bf
       -0.3936832 0.047125343 0.37361893 -1.4366341
000240 fb 8a a4 32 98 3f ca 31 27 26 26 b4 7f 6d 8a b5
       1.9155314e-08 5.8862035e-09 -1.5473834e-07 -1.0313669e-06
000250 65 db 04 31 9b 75 bf 32 af 84 c8 b3 58 f6 21 34
       1.933324e-09 2.2288807e-08 -9.337361e-08 1.5083913e-07
000260 86 fc 02 b4 2c f5 0a b2 78 4b 80 b2 67 c8 35 b3
       -1.2199061e-07 -8.088403e-09 -1.493548e-08 -4.232461e-08
000270 11 1e 63 32 89 b8 0b 33 f6 5b bf b2 5e 8d db b2
       1.3219975e-08 3.2531293e-08 -2.2277145e-08 -2.5559242e-08
000280 5f bd 10 3f 06 6b 49 bd b7 2e 33 bf de 36 44 be
       0.5653896 -0.04917433 -0.69993156 -0.19161555
000290 29 df 69 3b 52 5e 6e 3d 63 15 c6 3d 0f 17 ee 3b
       0.0035685992 0.05819542 0.09672048 0.0072659324
0002a0 95 25 95 be b9 7b 9e 3e df c6 d9 be eb d8 30 3e
       -0.29130235 0.30953768 -0.4253454 0.17270248
0002b0 c8 ad 76 bd 4d 8d e0 b1 46 e1 a4 bd 6e 3c d5 be
       -0.060224324 -6.535322e-09 -0.0805078 -0.41647667
0002c0 b2 76 29 bf e7 e3 bc be c7 9d 83 bd 8d ba f3 bc
       -0.6619674 -0.36892626 -0.06426578 -0.02975204
0002d0 94 17 48 ba 1a 4b fa 3e 81 c0 3d 3f 56 87 3b 3f
       -0.0007632908 0.48885423 0.7412186 0.7325338
0002e0 1c 7b db bd 2a 5e 17 3f 12 f0 29 3e a7 d6 49 3f
       -0.107168406 0.5912806 0.16595486 0.7884316
0002f0 44 9d 03 bf 68 00 de bc 56 94 34 3f e6 6b a2 bf
       -0.51411843 -0.027099803 0.7053884 -1.2689178
000300 68 1f af b4 32 29 6f 31 df 0c 6f 35 c6 84 06 b2
       -3.261914e-07 3.4802494e-09 8.905317e-07 -7.830016e-09
000310 21 f0 01 b3 b0 21 3c b3 b1 80 f2 b9 f2 8a 94 b5
       -3.025355e-08 -4.38028e-08 -0.0004625372 -1.1067298e-06
000320 5a a9 ac 38 f4 37 09 b2 68 d7 d3 b3 d4 22 29 35
       8.233143e-05 -7.987172e-09 -9.864635e-08 6.300809e-07
000330 7a b7 e0 32 9c 77 5b 36 bb a2 19 34 c2 b4 2a 39
       2.6160468e-08 3.2703165e-06 1.4308436e-07 0.00016279801
000340 4e a9 8c 3f 23 9f 3d 3f 1c 5b 2a 3e bb 81 1b bf
       1.0989168 0.7407095 0.16636318 -0.6074483
000350 d2 58 94 3b bd 50 73 bf 35 15 0b bf b6 f9 6f bf
       0.00452719 -0.9504507 -0.54329234 -0.93740404
000360 8a 46 49 bf b0 71 3f 3f b0 2d 5d bf 5c 2b 37 3f
       -0.7862326 0.7478285 -0.8639784 0.71550536
000370 06 84 59 3f 0d 86 16 33 35 76 77 bf 10 4b 46 be
       0.84967077 3.5046515e-08 -0.96664745 -0.19364572
000380 98 1d 9e be 15 79 f5 3e 69 9d 5c 3f e8 87 14 3f
       -0.30881953 0.4794394 0.8617769 0.58019876
000390 af 83 ef bb 92 af 7e bd 10 2d b3 be 37 60 8f 3d
       -0.007309399 -0.062179156 -0.34995317 0.070007734
0003a0 64 d1 57 3f 51 d9 34 be ff e0 95 3f 78 03 d3 be
       0.8430388 -0.17661025 1.1709288 -0.41213584
0003b0 5a d6 50 3f a4 86 15 33 55 71 f1 bc c4 05 1f 3e
       0.81577075 3.481422e-08 -0.029472986 0.15529543
0003c0 07 14 c0 36 d0 c7 1e 34 50 ab 21 b2 38 f1 b9 30
       5.7243774e-06 1.4787588e-07 -9.410385e-09 1.352908e-09
0003d0 fd 13 2b b3 92 47 3b 32 19 e4 34 b4 e2 3b 71 b3
       -3.983222e-08 1.0901106e-08 -1.6846788e-07 -5.6166648e-08
0003e0 a3 5d 2b b6 bb 81 52 b5 6c 72 e1 b2 7b 32 30 b3
       -2.553549e-06 -7.841988e-07 -2.624548e-08 -4.1024105e-08
0003f0 ba 8e 65 b5 a2 35 0f 37 99 ea 6b 35 8e 24 e3 33
       -8.551684e-07 8.535952e-06 8.7885707e-07 1.05771605e-07

convs.0.bias f4 [16]
000000 64 53 46 3e 16 d7 18 be b6 a7 80 3e a6 2f c7 3e
       0.19367748 -0.14925799 0.25127953 0.3890354
000010 a1 c3 34 3b 55 63 d1 be 98 ee 28 3c 07 28 e1 be
       0.0027582424 -0.40896097 0.010310791 -0.4397585
000020 51 2c ca 3e 7a 3e 25 3d bb 1d 07 bd 2b 92 3b 3e
       0.39486936 0.040342785 -0.032987338 0.18317477
000030 f8 e3 b7 3e 57 71 71 bd 55 6d 93 3d 2c b2 df 3e
       0.35916114 -0.05894598 0.07198588 0.43690622

ffn.0.weight f4 [7, 16]
000000 d7 05 85 be df f8 8b 3f 2d 94 3a 3f c3 dc b3 3e
       -0.25981018 1.0935324 0.7288235 0.35129365
000010 17 27 31 3c 8e cb 17 bf c2 c4 8a be a1 3c d1 be
       0.010812542 -0.59294975 -0.2710324 -0.4086657
000020 4a 04 2d 3f 52 5b 8f 3d d2 8b 2e 3f 83 58 99 be
       0.6758467 0.0699984 0.681821 -0.29950342
000030 53 5a 8f 3f 3d 54 d5 3c a6 0a 09 bf 24 eb 06 3f
       1.119944 0.026041145 -0.53531873 0.52702546
000040 c2 cf c3 bd 78 96 8e be b8 3f 4b bf 36 bd 4b be
       -0.09561111 -0.27849174 -0.793941 -0.19896397
000050 c9 af 26 bc fa bc f1 3e 5c bc f6 3e 98 2b 9f 3e
       -0.010173746 0.4721449 0.48190582 0.31087947
000060 fc ee bc be 7d 05 9b 3e e5 84 4d be aa e7 03 3e
       -0.3690108 0.30277625 -0.20070226 0.12881342
000070 78 bf 04 bf c0 70 cb bc 72 9a 6c 3e 17 d8 01 3d
       -0.5185466 -0.024834037 0.23105791 0.03170022
000080 b6 4a 04 bf c7 70 27 bf fe 7b 5f 3e e6 25 9c be
       -0.516765 -0.6540646 0.21824643 -0.30497664
000090 7c e2 9e b9 55 be 78 3e 02 a4 07 3f f2 37 89 3e
       -0.00030304852 0.24291356 0.5298463 0.26800495
0000a0 a7 6d f2 be 72 10 1c 3f 47 84 cf bd 02 aa d0 3e
       -0.47349283 0.60962594 -0.10132652 0.40754706
0000b0 68 7f 8b bf 7a 26 0a 3d 03 a0 14 3f f7 f2 a4 3f
       -1.0898256 0.0337281 0.5805666 1.2886647
0000c0 ec 11 87 bc 15 5d 1f bf 3e 35 b5 be 70 f0 a5 3e
       -0.016488038 -0.62251407 -0.35392183 0.32410002
0000d0 b3 df ca ba 35 cd b4 3e 8a 8a 66 3e 99 5c 86 3e
       -0.0015478045 0.3531281 0.22513786 0.2624252
0000e0 5f 6a aa 3e 3b 13 92 bf e7 f5 76 3c d1 6f ac 3d
       0.3328428 -1.1412119 0.015073276 0.08419765
0000f0 77 47 3e bf f5 c8 b0 3d d2 ad 94 3e c4 ef 5e bf
       -0.74327797 0.086320795 0.29038864 -0.87084603
000100 05 43 44 3f 45 db c5 3e 09 1e 32 be df e9 8a be
       0.76664764 0.38643852 -0.1739427 -0.27131554
000110 2c fe 18 3c e7 c6 33 bf 35 1e 00 bf 20 35 3d bf
       0.009337943 -0.70225376 -0.5004609 -0.7390919
000120 6c 09 15 bf 30 c3 f3 3e e8 da 6e bf 10 f8 97 3e
       -0.582175 0.47609854 -0.93302774 0.29681444
000130 2a e5 bf 3e ce c3 fa 3c b5 0f 6a bf b2 33 e1 3d
       0.37479526 0.030610945 -0.9143022 0.10996188
000140 47 db a4 be 4f d2 53 bf be a4 7f be cc 9a ce 3e
       -0.32198545 -0.8274278 -0.24965188 0.40352476
000150 67 27 c4 bb a8 95 ca bd 6c ef 68 bd 60 11 4f be
       -0.0059861424 -0.09891826 -0.056868955 -0.20221472
000160 b6 51 1c 3f 4c 95 48 bd 14 41 a1 3e b7 7b 34 be
       0.6106218 -0.048970506 0.31494963 -0.17625318
000170 20 7f ca bb 46 85 58 3d d1 06 88 3e bb 82 2a 3f
       -0.0061797053 0.052861474 0.265677 0.6660573
000180 3d d5 ac bd c0 87 15 bf 99 32 13 3e 28 26 d1 3e
       -0.084391095 -0.58410263 0.1437477 0.40849423
000190 a1 29 2d 3a 5a 22 fa 3e 16 70 d5 be d0 28 8d 3e
       0.00066056295 0.48854333 -0.41687077 0.275702
0001a0 46 39 b2 3e 13 1c 66 be cc d6 0f 3e b2 66 32 bf
       0.3480932 -0.22471647 0.14046782 -0.6968795
0001b0 d5 1a f2 be a4 db bd bb c9 ef ad 3e aa c8 90 bf
       -0.47286096 -0.0057940055 0.33972004 -1.1311238

ffn.0.bias f4 [7]
000000 95 53 20 3e 0f 83 27 bf 20 f2 e1 bd 63 d3 53 be
       0.15656884 -0.65434355 -0.1103251 -0.20686106
000010 0e 97 86 3d c4 a0 08 3e b0 0e b2 3d
       0.0657178 0.13342577 0.08694208
