attack_checkpoints/photo/20/GCN_2l/GCN_2l_best.ckpt (torch, 51883 bytes, 6 tensors)

conv1.weight f4 [745, 16]
-0.035132077 0.008138518 -0.018911624 -0.020853307 -0.013374983 1.80738e-07 0.11280824 0.013566534
-0.036535136 -0.0048223855 -0.048186384 0.005787709 -6.5581353e-06 0.06853914 -0.000108608954 -0.07493268
0.04150965 0.0056219255 -0.0074420245 -0.049782205 -0.034980066 1.9670792e-06 0.0422673 0.054283578
-0.05148064 -0.0077353264 -0.038975038 -0.015491977 -0.00077470276 -0.0268453 -0.000802638 0.098678894
0.12766957 0.0048262905 0.12350417 0.016689606 -0.013918297 1.9934886e-08 0.069963604 0.1478654
0.009104496 -0.0017851699 -0.06485622 0.0025389728 -0.00017572852 -0.072586745 1.5543939e-06 -0.010374119
0.035990078 -0.008549061 0.025137106 0.013544515 -0.0038544466 -3.7617068e-07 0.13122144 -0.03364621
0.009536372 -0.0023340823 -0.02733456 -0.0058335233 -0.00012420163 0.0576942 -6.298517e-06 0.014758091
0.06192067 -0.0035843514 0.09739241 -0.047443878 0.016643353 5.152441e-07 -0.017791275 -0.14320019
-0.055322815 -0.0055816835 0.014769204 -1.0668871e-05 1.4592569e-05 -0.23007208 0.0010549478 0.20127958
-0.01858727 -0.0010148985 -0.13192193 -0.023286652 1.67718e-05 -6.209926e-10 0.11147297 0.021838527
-0.005953003 -0.0011094748 -0.032321397 -0.0054178652 -0.000102873324 0.13791145 4.6345045e-05 0.087680236
0.011552586 -0.008311259 0.14830603 0.0229714 0.009410633 -0.0006753368 0.010001616 -0.008272009
0.007630754 -0.020722402 0.015581516 0.02024272 -0.0034432884 -0.033387616 -0.013930499 0.062658586
0.05684867 -0.0071159154 -0.09377563 0.025338214 0.029999273 9.874809e-08 -0.070170425 0.072561935
0.016353387 -0.005243326 0.009685961 -0.0025266667 -0.00073202926 -0.22549829 0.0016483964 0.25403658
-0.021676619 -0.02393255 0.016734516 0.008772652 0.034516852 -8.5565014e-05 0.037952475 0.06666752
-0.035754945 -0.013999399 -0.067299105 -0.037673257 -0.0031074202 0.07186258 -0.0060714986 0.02894599
-0.041788317 0.002044161 -0.062660605 -0.028483465 -0.018632779 1.6918705e-07 0.120636135 -0.11689026
0.00039151614 0.00035244742 -0.043216713 -0.007920385 -2.9214732e-05 0.13242927 -6.297407e-05 -0.04648562
-0.25525257 0.017806735 -0.13734248 -0.0050075874 -0.0046156347 3.8471546e-05 0.24754451 0.05738149
-0.03249339 -0.019219084 -0.018556476 -0.018530903 -0.004179492 0.16084956 -0.005732378 -0.23969795
0.043141317 -0.026317952 0.18553057 -0.00712728 -0.056147795 -4.169575e-07 0.12016902 -0.01988503
-0.042354617 -0.007849862 -0.032440137 -0.025971215 -0.0006463432 -0.10440692 -0.001279269 -0.0779418
0.13640246 -0.001064435 -0.04385681 -0.034012962 0.029000979 -3.491068e-06 -0.20208886 0.15010962
-0.008625225 -0.0060498337 -0.0794571 -0.029021587 -0.00029637982 0.022796143 -0.0012774186 0.27289173
0.07969203 -0.0050927266 -0.2549158 -0.009599731 0.03826842 -8.56813e-07 0.09957924 0.15832824
-0.017931297 -0.0051803133 -0.010253243 -0.02233529 -0.0005432891 -0.054287583 -0.00094604294 0.101238124
-0.073589936 0.018493548 0.18120174 -0.0054997583 -0.01432627 -0.001133781 -0.06608748 0.037821442
0.01604154 -0.022722684 -0.032420505 0.0063764155 -0.0036400019 0.09659916 -0.012126642 0.03223607
-0.04530954 0.0007140308 -0.23857309 0.010203184 -0.030234326 -7.177857e-08 0.08713771 0.11154513
-0.016240325 -0.0008132103 -0.004004915 -0.0029262833 1.5913674e-05 0.13891372 -3.2551143e-05 0.12655872
00000000: a7e6 0fbd 6b57 053c 8dec 9abc 8ed4 aabc
00000010: bf22 5bbc e210 4234 0208 e73d 2b46 5e3c
00000020: dea5 15bd 1a05 9ebb 165f 45bd d2a6 bd3b
00000030: f40d dcb6 405e 8c3d fdc4 e3b8 4e76 99bd
00000040: 0606 2a3d 2138 b83b 3adc f3bb 6de8 4bbd
00000050: 4247 0fbd 2a02 0436 7a20 2d3d 7558 5e3d
00000060: 5ddd 52bd 9f78 fdbb 4aa4 1fbd 10d2 7dbc
00000070: 6c15 4bba adea dbbc 2068 52ba 2918 ca3d
00000080: d0bb 023e dc25 9e3b c1ef fc3d a4b8 883c
00000090: 9209 64bc 473d ab32 1449 8f3d 076a 173e
000000a0: 062b 153c 5dfc e9ba 56d3 84bd e564 263b
000000b0: c443 38b9 5ca8 94bd 91a0 d035 35f8 29bc
000000c0: 556a 133d 5c11 0cbc 55ec cd3c d0e9 5d3c
000000d0: e29a 7cbb 81f4 c9b4 ea5e 063e 9cd0 09bd
000000e0: 713e 1c3c 67f7 18bb baec dfbc 2427 bfbb
000000f0: 1f3c 02b9 c150 6c3d d957 d3b6 eccb 713c
00000100: 87a0 7d3d 70e7 6abb ac75 c73d 8354 42bd
00000110: a457 883c 4e4f 0a35 02bf 91bc 12a3 12be
00000120: 2d9a 62bd 8ee6 b6bb 88fa 713c 74fe 32b7
00000130: 9bd2 7437 0498 6bbe 2d46 8a3a 3c1c 4e3e
00000140: 5544 98bc 5806 85ba 8b16 07be a6c3 bebc
00000150: 2bb1 8c37 78b2 2ab0 f14b e43d b6e6 b23c
00000160: 6911 c3bb cc6b 91ba 7163 04bd 5988 b1bb
00000170: b2bd d7b8 a938 0d3e 9d62 4238 b291 b33d
00000180: 0f47 3d3c f22b 08bc 89dd 173e 842e bc3c
00000190: 0e2f 1a3c 1609 31ba d1dd 233c 5287 07bc
000001a0: 670b fa3b 07c2 a9bc 9d49 7f3c 10d4 a53c
000001b0: cba8 61bb 74c1 08bd bf3c 64bc 2553 803d
000001c0: 27da 683d a02c e9bb 700d c0bd 1692 cf3c
000001d0: 09c1 f53c 560f d433 83b5 8fbd 5a9b 943d
000001e0: 8af7 853c 35d0 abbb ddb1 1e3c 6f96 25bb
000001f0: a7e5 3fba 06e9 66be 010f d83a 1511 823e
00000200: 2a93 b1bc 320e c4bc d316 893c 2bbb 0f3c
00000210: 8b61 0d3d 5e71 b3b8 0e74 1b3d fb88 883d
00000220: c773 12bd bc5d 65bc 1dd4 89bd 464f 1abd
00000230: dca5 4bbb b02c 933d 6cf3 c6bb 2420 ed3c
00000240: 3a2a 2bbd 55f7 053b 3454 80bd 2856 e9bc
00000250: c5a3 98bc c8a9 3534 1410 f73d 2964 efbd
00000260: 6844 cd39 b1c8 b839 0204 31bd 81c4 01bc
00000270: 2912 f5b7 8a9b 073e f210 84b8 b567 3ebd
00000280: 77b0 82be 6edf 913c 82a3 0cbe b016 a4bb
00000290: c03e 97bb 825c 2138 4f7c 7d3e da08 6b3d
000002a0: ca17 05bd 5771 9dbc c003 98bc 1fce 97bc
000002b0: 1ff4 88bb bfb5 243e acd6 bbbb 6173 75be
000002c0: f3b4 303d bf98 d7bc bafb 3d3e f58b e9bb
000002d0: 3bfb 65bd 34da dfb4 2d1b f63d eee5 a2bc
000002e0: 097c 2dbd b59c 00bc f3df 04bd 96c1 d4bc
000002f0: 5c6f 29ba 4cd3 d5bd 25ad a7ba f39f 9fbd
00000300: 16ad 0b3e 8384 8bba 33a3 33bd 2d51 0bbd
00000310: 7693 ed3c 1748 6ab6 62f0 4ebe 56b6 193e
00000320: d150 0dbc af3d c6bb 67ba a2bd aebe edbc
00000330: 6d63 9bb9 fabe ba3c 0e6f a7ba 77b8 8b3e
00000340: 9335 a33d e3e0 a6bb 5384 82be 3148 1dbc
00000350: 59bf 1c3d beff 65b5 33f0 cb3d cc20 223e
00000360: a8e4 92bc 9ebf a9bb 38fd 27bc 80f8 b6bc
00000370: 846b 0eba a85c 5ebd deff 77ba ef55 cf3d
00000380: 52b6 96bd c87f 973c f38c 393e 5137 b4bb
00000390: bbb8 6abc 619b 94ba df58 87bd a8ea 1a3d
000003a0: 8c69 833c ec24 babc 5dcb 04bd 40f1 d03b
000003b0: 198d 6ebb c8d5 c53d d3ae 46bc f809 043d
000003c0: 7f96 39bd cc2d 3b3a 814c 74be 412b 273c
000003d0: faad f7bc b024 9ab3 4175 b23d c671 e43d
000003e0: 6e0a 85bc 9f2d 55ba a93b 83bb e3c6 3fbb
000003f0: 5b7e 8537 663f 0e3e 8687 08b8 9c98 013e

conv1.bias f4 [16]
0.3345143 1.395108e-05 -0.56071824 -0.021630766 -0.027917515 -0.0014830809 -0.3141545 0.59915423
-0.017811654 -0.027703939 -0.028554209 -0.014675709 -0.0027915493 -0.08185343 -0.012680814 0.54412955
00000000: 7545 ab3e 6f0f 6a37 3b8b 0fbf 0133 b1bc
00000010: 46b3 e4bc f063 c2ba dcd8 a0be 2c62 193f
00000020: bfe9 91bc 5ff3 e2bc 84ea e9bc 6372 70bc
00000030: 6df2 36bb c5a2 a7bd 30c3 4fbc 134c 0b3f

convs.0.weight f4 [16, 16]
0.8141837 -0.09478586 -0.90541077 0.0010550322 0.1682043 -0.56016374 -0.046510965 0.66324544
0.20928273 -0.023244582 0.48609585 -1.0387716 -0.2745169 0.4984595 0.2889699 -0.30458444
5.676631e-06 -0.051861055 9.932732e-09 -1.9057613e-09 0.008092069 -0.008243316 0.00063892856 0.082576364
-2.2469173e-07 0.06712252 -1.2398422e-07 -2.4165604e-06 0.14223371 -3.972954e-09 0.03185042 0.0021124484
0.2415019 -0.0053007603 0.27909192 -0.009216199 0.72004443 0.72091323 -0.40467277 -0.635543
-0.30337864 -0.0014786422 0.5233279 0.49051344 -0.61076367 0.36147228 0.6841248 -0.60007334
5.1766897e-06 0.17679903 -7.4754904e-09 -4.0168757e-11 0.19735575 0.039527737 2.2303661e-07 -0.24657625
-0.030258419 0.13724054 1.388848e-07 0.00063219515 -0.06649771 -0.004612075 0.062165357 -0.13322206
0.005053619 2.0098782e-06 1.0978164e-07 1.3861243e-09 0.24725065 0.017561462 0.05006277 -0.2949745
0.319359 -0.000120053934 -1.4834586e-08 0.24232087 -0.17104311 0.11199936 0.024140347 0.035528213
-3.8518667e-08 4.672246e-07 -6.633684e-06 -1.1136548e-07 -8.630991e-07 4.020433e-06 -9.730608e-05 0.00016725888
7.2454753e-10 -1.3810485e-07 -1.2948897e-08 -8.818103e-06 -9.403781e-07 -4.383029e-08 4.72535e-09 -4.925622e-08
0.026907744 -0.0034389317 -0.09239114 -0.025664506 0.36322433 0.0410315 0.6628872 0.31437016
-0.1653762 -0.24877411 -0.12309636 -0.4120857 0.22169812 -0.53644884 -0.122319035 0.66213334
0.34641737 5.263445e-09 0.42538223 0.0016128523 -0.7417672 -0.20490047 0.1162591 -0.28637838
0.10900349 2.6947264e-09 -0.61657596 -0.47268572 0.79293686 0.30540818 0.021688752 0.09186909
2.2811104e-09 -0.001583488 4.0849184e-08 3.9984677e-08 -0.0014392019 0.00050715974 -0.0007406415 -0.0073307897
-0.000116897274 0.055029698 2.7698155e-07 1.5734626e-08 0.020354217 4.93835e-06 -0.0030512298 2.2254646e-08
0.006412102 -8.748264e-06 -0.00031862324 2.689957e-08 0.00017263932 -0.009803087 -0.0071967393 7.30203e-05
8.501635e-09 -9.100937e-09 0.019254941 -0.00010041725 -0.007857423 0.012706129 0.017915547 -0.018851293
0.18059705 4.3214055e-07 -2.1444076e-07 4.827205e-08 0.15757844 -0.031239215 -4.4164e-08 -0.31814662
0.16861358 -7.855493e-08 -2.219934e-07 0.04889647 0.19715908 0.020838449 -4.0271615e-07 -0.20017467
1.7266512e-08 0.00051251444 -2.4027935e-10 1.8450917e-08 -0.014021431 -0.0010773694 -8.0719005e-09 -0.013688382
7.419032e-05 0.015007282 7.50335e-06 2.0299498e-07 -0.0021684389 4.059494e-06 -0.0026317835 0.0006857936
-1.2516571e-08 -1.2973321e-08 -2.2431698e-07 -1.3720318e-09 -1.7211235e-08 3.74822e-09 -3.108908e-06 -2.1636506e-08
-1.8376657e-08 8.727939e-08 9.020301e-08 3.3390823e-08 -3.2874505e-07 -4.2225412e-08 -7.0864934e-07 8.752136e-06
-0.5164157 -0.012210915 0.78935087 -0.007809992 -0.44023246 1.0240405 -0.03979892 0.6638698
0.32745093 -0.021701377 -0.13604939 0.3541089 0.4146941 -0.1263042 -0.76646733 0.29238507
-1.41769725e-08 0.022634048 1.5288977e-07 6.71611e-07 0.05853415 -5.4056187e-08 -0.012546384 0.046470575
-0.000113909744 0.023099195 2.4536462e-08 1.7672953e-08 -0.0132336365 0.00010481373 -0.0017801314 0.02814767
0.53068703 -4.4140535e-07 0.2170439 -9.023602e-05 -0.43413293 -0.7939214 -0.21778838 0.6337567
-0.14843489 -1.450398e-07 -0.3690561 0.5991394 -0.012059232 0.7083986 0.54461473 -0.66788286
00000000: 586e 503f 171f c2bd 00c9 67bf 0249 8a3a
00000010: bf3d 2c3e e466 0fbf 4882 3ebd 74ca 293f
00000020: 364e 563e 6c6b bebc 8ee1 f83e 78f6 84bf
00000030: 7b8d 8cbe 1536 ff3e ddf3 933e 7ef2 9bbe
00000040: e479 be36 426c 54bd 9ea4 2a32 82f6 02b1
00000050: 9994 043c f90e 07bc c57d 273a cc1d a93d
00000060: cb42 71b4 8877 893d 8620 05b4 312c 22b6
00000070: b7a5 113e 7982 88b1 9675 023d 0171 0a3b
00000080: 464c 773e 00b2 adbb 23e5 8e3e 8aff 16bc
00000090: d554 383f c58d 383f 4531 cfbe f2b2 22bf
000000a0: 7254 9bbe 00cf c1ba d1f8 053f 9424 fb3e
000000b0: 025b 1cbf e512 b93e ce22 2f3f 689e 19bf
000000c0: 6db3 ad36 ce0a 353e 8e6d 00b2 00aa 30ae
000000d0: a017 4a3e d6e7 213d d67b 6f34 7c7e 7cbe
000000e0: 81e0 f7bc c988 0c3e 5d20 1534 e6b9 253a
000000f0: f42f 88bd e420 97bb 1aa1 7e3d 5d6b 08be
00000100: d498 a53b 72e1 0636 18c1 eb33 ea81 be30
00000110: 462f 7d3e 0edd 8f3c 9e0e 4d3d e606 97be
00000120: 0683 a33e 77c5 fbb8 33db 7eb2 f622 783e
00000130: ed25 2fbe ec5f e53d fac1 c53c 0886 113d
00000140: b96f 25b3 dcd6 fa34 e996 deb6 d227 efb3
00000150: b8af 67b5 42e7 8636 ce10 ccb8 3762 2f39
00000160: 8029 4730 f949 14b4 da75 5eb2 77f1 13b7
00000170: 4a6e 7cb5 ea3f 3cb3 9e5c a231 c98d 53b3
00000180: a16d dc3c b35f 61bb 9137 bdbd 5f3e d2bc
00000190: 8af8 b93e a510 283d fab2 293f 20f5 a03e
000001a0: 6158 29be a4be 7ebe f219 fcbd e6fc d2be
000001b0: d504 633e b654 09bf 6782 fabd 9281 293f
000001c0: 9e5d b13e c0d9 b431 b3cb d93e 5866 d33a
000001d0: 75e4 3dbf 6ed1 51be 4019 ee3d 30a0 92be
000001e0: 393d df3d 212e 3931 ecd7 1dbf dd03 f2be
000001f0: e9fd 4a3f 765e 9c3e 9cac b13c dd25 bc3d
00000200: b8c1 1c31 0a8d cfba 2772 2f33 9ebb 2b33
00000210: 9aa3 bcba eaf2 043a 9c27 42ba 1f37 f0bb
00000220: bf26 f5b8 d266 613d 0eb4 9434 cf28 8732
00000230: e3bd a63c 1ab4 a536 24f7 47bb 7c2a bf32
00000240: 9c1c d23b 82c5 12b7 e30c a7b9 c810 e732
00000250: 8406 3539 219d 20bc a0d2 ebbb 7a22 9938
00000260: 960e 1232 585a 1cb2 8abc 9d3c 1a97 d2b8
00000270: 6cbc 00bc 5e2d 503c a0c3 923c 076e 9abc
00000280: 6fee 383e f200 e834 0741 66b4 ae53 4f33
00000290: 3e5c 213e 62e9 ffbc d5ae 3db3 1de4 a2be
000002a0: 0aa9 2c3e 08b2 a8b3 155d 6eb4 aa47 483d
000002b0: 12e4 493e 65b5 aa3c e334 d8b4 97fa 4cbe
000002c0: 7651 9432 435a 063a 5018 84af ff7d 9e32
000002d0: 25ba 65bc 8536 8dba 98ac 0ab2 3c45 60bc
000002e0: a096 9b38 1ae1 753c 49c5 fb36 d6f6 5934
000002f0: 5e1c 0ebb ca36 8836 007a 2cbb d4c6 333a
00000300: 7608 57b2 45e1 5eb2 c8db 70b4 1492 bcb0
00000310: e8d7 93b2 b1c9 8031 a2a2 50b6 2edb b9b2
00000320: b2da 9db2 5a6e bb33 a1b5 c133 9969 0f33
00000330: 607e b0b4 555b 35b3 033a 3eb5 23d6 1237
00000340: d233 04bf 4a10 48bc e612 4a3f f6ea ffbb
00000350: 2666 e1be c213 833f 3104 23bd 5ff3 293f
00000360: a6a7 a73e 16c7 b1bc 8850 0bbe c34d b53e
00000370: c952 d43e e355 01be 3437 44bf 7fb3 953e
00000380: fc8e 73b2 0a6b b93c 052a 2434 c248 3435
00000390: 81c1 6f3d 682b 68b3 598f 4dbc ee57 3e3d
000003a0: d4e2 eeb8 863a bd3c 40c4 d232 3ccf 9732
000003b0: e5d1 58bc 71cf db38 4c53 e9ba f195 e63c
000003c0: 1bdb 073f 4afa ecb4 c240 5e3e 183d bdb8
000003d0: ac46 debe 6f3e 4bbf eb03 5fbe e13d 223f
000003e0: 51ff 17be 3dbc 1bb4 ecf4 bcbe 3361 193f
000003f0: 1694 45bc 9c59 353f df6b 0b3f 5ffa 2abf

convs.0.bias f4 [16]
0.6963038 -0.02669899 -0.8368342 -5.0899376e-05 -0.91010916 -1.0030932 0.24175626 0.5550334
-0.031396627 -0.024799708 -0.14463301 0.32711014 0.20676659 0.50603443 0.619568 0.10716844
00000000: f740 323f d7b7 dabc c43a 56bf ca7c 55b8
00000010: eafc 68bf 5c65 80bf f48e 773e ab16 0e3f
00000020: c099 00bd c228 cbbc ad1a 14be fb7a a73e
00000030: 9fba 533e 798b 013f 029c 1e3f 217b db3d

ffn.0.weight f4 [8, 16]
0.17164034 0.07106074 -0.331247 0.0006520258 0.29397956 0.2890872 -0.20869519 -0.48036698
0.053650934 -0.008031383 0.7315363 -0.3262708 -0.098354824 0.02879049 0.46282476 -0.9580327
-0.1604637 0.019570164 -0.4251011 -0.0019043612 0.56159675 0.28636298 -0.096696675 0.11685188
-0.19635275 -0.0459319 0.59230435 0.13400736 -0.6556269 -0.842616 0.1058483 0.0025019879
-0.68593603 -3.8562085e-08 0.7681209 0.000101509475 -0.2616159 0.7893886 -0.41964862 0.18420403
-0.001444258 -8.820647e-08 -0.8406138 0.3107918 0.34570348 -0.07734483 -0.7598727 0.002740366
-0.10559502 -0.008711235 -0.25549382 -0.0009852434 0.09370009 0.44092536 0.1747843 -0.04107648
0.17944819 -0.01071374 -1.1915929 0.024387708 -0.021110937 -0.69321746 -0.21037756 0.5136165
-0.40973493 -0.017248515 0.37574127 0.00056662335 -0.54657334 -0.50218874 0.34187084 0.62223876
0.037019994 0.0004835427 -0.47080356 -0.09812066 0.5651419 0.541699 -0.54064953 0.5230011
-0.51989573 4.660064e-06 0.944206 -0.00031510767 0.081314676 0.62683094 -0.63530415 -0.7711644
0.18577461 0.013480461 -0.2535842 0.86715615 -0.5693185 0.1710747 0.20974907 -0.8991541
0.36511332 -0.0041477247 -0.40911052 0.002065067 -0.5708322 -0.5243542 -0.23826538 0.27925003
-0.101721756 0.030195288 0.7559266 0.49981093 0.3982835 0.90616196 0.59629667 -0.06853403
0.6962278 0.021723269 -0.9313076 0.00010145861 0.34446067 -0.8295563 0.01808377 0.14203064
0.15450412 0.045796167 -0.873071 -0.35234267 -0.10371396 0.04476071 0.50005 -0.12305922
00000000: 7cc2 2f3e 4b88 913d 3599 a9be b6ec 2a3a
00000010: 7d84 963e 3d03 943e 31b4 55be a9f2 f5be
00000020: 15c1 5b3d 1096 03bc f745 3b3f f70c a7be
00000030: 416e c9bd 09da eb3c 5ef7 ec3e a241 75bf
00000040: 9950 24be 9c51 a03c daa6 d9be c29b f9ba
00000050: cec4 0f3f 2b9e 923e e808 c6bd 0a50 ef3d
00000060: b210 49be 1723 3cbd 42a1 173f 3a39 093e
00000070: 2ad7 27bf afb5 57bf fec6 d83d 64f8 233b
00000080: 8199 2fbf 769f 25b3 92a3 443f 7ce1 d438
00000090: 85f2 85be 5f15 4a3f 2fdc d6be fb9f 3c3e
000000a0: 424d bdba 056c bdb3 7732 57bf 1a20 9f3e
000000b0: 0c00 b13e f766 9ebd 0487 42bf b697 333b
000000c0: 3442 d8bd 91b9 0ebc 16d0 82be 4823 81ba
000000d0: d5e5 bf3d f8c0 e13e a8fa 323e d03f 28bd
000000e0: 44c1 373e af88 2fbc 1e86 98bf bbc8 c73c
000000f0: d8f0 acbc b376 31bf 376d 57be 5f7c 033f
00000100: c7c8 d1be c24c 8dbc 2961 c03e 7389 143a
00000110: 3bec 0bbf 718f 00bf b209 af3e 0a4b 1f3f
00000120: 47a2 173d 0184 fd39 2a0d f1be 7cf3 c8bd
00000130: 24ad 103f c9ac 0a3f 0268 0abf 66e3 053f
00000140: e317 05bf a55d 9c36 7cb7 713f 0935 a5b9
00000150: 4f88 a63d fe77 203f 4ba3 22bf 086b 45bf
00000160: b33b 3e3e 27dd 5c3c cad5 81be f2fd 5d3f
00000170: dbbe 11bf 352e 2f3e 76c8 563e f72e 66bf
00000180: 22f0 ba3e a3e9 87bb ef76 d1be 1356 073b
00000190: 0f22 12bf 143c 06bf d7fb 73be dcf9 8e3e
000001a0: 7f53 d0bd 1c5c f73c 6884 413f 38e7 ff3e
000001b0: d1eb cb3e 3bfa 673f e6a6 183f 925b 8cbd
000001c0: fc3b 323f fff4 b13c 2d6a 6ebf 2dc6 d438
000001d0: 265d b03e cd5d 54bf 6a24 943c 7b70 113e
000001e0: 5436 1e3e c394 3b3d 9581 5fbf 4266 b4be
000001f0: fc67 d4bd 0257 373d 4703 003f 7906 fcbd

ffn.0.bias f4 [8]
-0.28123364 -0.2284093 -0.33395 -0.18321407 0.30668145 -0.44106525 0.8213133 -0.10180399
00000000: dbfd 8fbe 21e4 69be 7ffb aabe 789c 3bbe
00000010: 5a05 9d3e 4ed3 e1be 9741 523f 9c7e d0bd
